100_2284.pth (torch, 205447 bytes, 10 tensors)

weight f4 [50, 504]
0	0xbc5ebe8d	-0.0135952355
1	0xbcf1ffce	-0.029540922
2	0x3d0b5f61	0.034026507
3	0xbca67a31	-0.020321937
4	0x3be7a0a1	0.007068709
5	0xbd0deebb	-0.0346515
6	0xbcb4bd1d	-0.022062832
7	0xbd225079	-0.039627526
8	0xbc82f780	-0.015987158
9	0xbd1d25fd	-0.038366307
10	0x3cfbeedd	0.030753547
11	0x3d346908	0.044045478
12	0x3ce11385	0.027475128
13	0xbd30612d	-0.043061424
14	0xbc30b2a3	-0.010784778
15	0xbd1b6666	-0.03793945
16	0xbd32638e	-0.043551974
17	0x3ceb27b2	0.028705452
18	0xbbfa8c35	-0.0076461085
19	0x3d231141	0.039811376
20	0x3c4b32ff	0.012402295
21	0xbd12c324	-0.03583063
22	0xbc52bd78	-0.012862556
23	0x3c0c863c	0.008576926
24	0x3d2dfbfc	0.04247664
25	0xbc207625	-0.009793793
26	0x3b26e95f	0.002546869
27	0xbc4dbe89	-0.012557634
28	0x3c9c1f8a	0.019058008
29	0xbd1db8d5	-0.038506348
30	0xbc2c9ba4	-0.0105351545
31	0x3d18a92e	0.037270717
32	0x3c7f1614	0.015569229
33	0x3c09587d	0.008382914
34	0xbd207231	-0.0391714
35	0x3c2be798	0.010492228
36	0x3d2fd6d4	0.042929485
37	0x3d0e4481	0.0347333
38	0x3c833bd8	0.016019747
39	0xbb26ff8e	-0.0025481912
40	0x3d294192	0.0413223
41	0xbcf35f7f	-0.029708622
42	0x3ba07424	0.0048966575
43	0xbc905866	-0.017620277
44	0x3ca35977	0.019940121
45	0x3d1a62dc	0.037691936
46	0x3c790042	0.015197815
47	0x3c343fa8	0.011001505
48	0x3d1e1ebb	0.038603526
49	0x39d5cfd1	0.0004078136
50	0x3cd7164d	0.026255751
51	0xbd2d76e0	-0.042349696
52	0x3c76bba2	0.015059384
53	0x3c90764c	0.017634533
54	0xbcfc2970	-0.030781478
55	0x3b89297f	0.004185855
56	0xbcd1a8d7	-0.025593204
57	0x3d238f1d	0.039931405
58	0xbc01f219	-0.007931256
59	0x3d22a7e8	0.03971091
60	0x3bc32032	0.0059547657
61	0xbd1b4fef	-0.037918027
62	0xbd25f901	-0.04052067
63	0x3cdbd2b2	0.026833866
64	0x3d2c5906	0.042077087
65	0x3b3246de	0.0027202885
66	0xbb2edbf2	-0.002668139
67	0x3d236b3a	0.03989718
68	0x3cd9bf61	0.026580514
69	0x3c843812	0.016140018
70	0xbc2c2b7a	-0.0105084125
71	0x3c84c99e	0.01620942
72	0xbd214156	-0.03936895
73	0xbd2cd383	-0.0421939
74	0x3c137f2f	0.009002491
75	0xbc99d87a	-0.018779982
76	0xbc089cb7	-0.008338145
77	0x3bd9c255	0.0066454806
78	0x3cc39be5	0.023878047
79	0xbcf9c508	-0.03048946
80	0xbc99d1ce	-0.0187768
81	0x395d6311	0.00021113108
82	0xbc4013d7	-0.01172348
83	0x3d2fc14b	0.042908948
84	0xbcbdfc75	-0.02319167
85	0xba9a6684	-0.001177982
86	0xbd094b22	-0.033518918
87	0xbd1c90c3	-0.038223993
88	0x3d2e79df	0.042596694
89	0xbcb22e4d	-0.021750594
90	0x3cb204bb	0.021730771
91	0x3cff8fc3	0.03119648
92	0x3cc0f244	0.023553021
93	0xbd1a9a79	-0.037744973
94	0xbbb51ccb	-0.005527114
95	0xbd2e64ec	-0.042576715
96	0x3b305233	0.0026904463
97	0xbcc30ac0	-0.023808837
98	0xbcf848e2	-0.03030819
99	0x3c13e09f	0.009025722
100	0x3c998a0c	0.018742584
101	0xbc1746f5	-0.009233226
102	0x3c77b357	0.015118442
103	0x3d0da748	0.03458336
104	0xbcd23516	-0.025660079
105	0xbc5ce48a	-0.013482222
106	0xbd18f03e	-0.037338488
107	0x3c23019d	0.009949115
108	0xbd0a22f6	-0.033724748
109	0x3d2fc053	0.042908024
110	0xbcef8847	-0.029239787
111	0x3d2979d8	0.041375965
112	0x3d349eb7	0.044096675
113	0xbcfc30dd	-0.030785019
114	0x3d07e0ce	0.033173375
115	0xbd13fc8d	-0.036129523
116	0xbd151680	-0.03639841
117	0xbcf03331	-0.029321285
118	0x3cd05e0d	0.025435472
119	0x3d308121	0.043091897
120	0x3a8a9470	0.0010572802
121	0x3bfd9d1c	0.007739676
122	0x3d24cec5	0.040236253
123	0x3c411776	0.011785379
124	0x3c22fc6d	0.009947878
125	0x3d1e9276	0.038713895
126	0x3d174f70	0.036940992
127	0x3bdd03c9	0.006744836
128	0x3c9a53b5	0.018838743
129	0x3d171703	0.03688718
130	0x3d1ee90f	0.03879648
131	0xbd23a331	-0.039950553
132	0xbb85d5de	-0.004084333
133	0xbcec99b2	-0.028881881
134	0x3ce69caa	0.028150875
135	0x3cbcab93	0.023031032
136	0x3cac37d4	0.021022715
137	0x3d3608f1	0.04444212
138	0x3d319f5b	0.043364864
139	0xbcf7d4e2	-0.030252878
140	0xbd24a50b	-0.04019646
141	0xbd1ad0b5	-0.037796695
142	0x3be5d2a0	0.007013634
143	0xbc0bf2a9	-0.008541741
144	0xbd2ad980	-0.04171133
145	0xbcd60bda	-0.026128698
146	0xbd16374e	-0.036673836
147	0x3d1836f5	0.037161786
148	0xbd1fc918	-0.039010137
149	0xbc3718f2	-0.011175381
150	0x3bd62a54	0.0065358076
151	0x3cdb18a9	0.026745157
152	0xbc7e64e3	-0.015526983
153	0x3ceda9a0	0.029011548
154	0x3bf0fcc3	0.0073543503
155	0x3cc12796	0.023578446
156	0x3c0a188a	0.008428702
157	0xbc245a8a	-0.010031352
158	0x3c41ff9f	0.01184073
159	0xbcf0272d	-0.029315555
160	0xbcd7cdd4	-0.026343264
161	0xbaddd7f2	-0.0016925319
162	0xbc98a2dd	-0.018632347
163	0x3d0d3c92	0.034481592
164	0x3c5417e2	0.012945147
165	0xbb46d9c9	-0.0030342212
166	0x3d0c4361	0.034243945
167	0x3cb04fe7	0.021522475
168	0xbd2be4d4	-0.041966274
169	0xbccfecd2	-0.02538148
170	0xbd33bbfa	-0.04388044
171	0xbc87167b	-0.016490212
172	0x3d064978	0.03278491
173	0x3cc0ec0e	0.02355006
174	0xbd2df073	-0.04246564
175	0xbc89d29e	-0.016824063
176	0xbbdac8eb	-0.0066767833
177	0xbcc9b8aa	-0.024624187
178	0xbc43f1ee	-0.011959536
179	0x3c27d9e3	0.010244819
180	0xbb5b1aa7	-0.0033432634
181	0xbaffdff3	-0.0019521698
182	0xbc778113	-0.015106457
183	0xbd06b256	-0.03288492
184	0x3d1c7c36	0.038204394
185	0x3c8b9633	0.017039394
186	0x3d2b54b8	0.04182884
187	0xbd1e5d15	-0.03866299
188	0x3cfbdb32	0.030744169
189	0xbac69bf5	-0.001515268
190	0xbd3212a8	-0.043474823
191	0x3c247d15	0.0100395875
192	0x39f9c7dc	0.00047641888
193	0x3d16d6e1	0.03682602
194	0x3bd12328	0.006382365
195	0x3c9cef6d	0.019157136
196	0xbcaf95fb	-0.021433821
197	0xbb895241	-0.0041907136
198	0xbd17be61	-0.037046794
199	0x3cd369dd	0.025807315
200	0xbcf661ad	-0.030075872
201	0x3cd12299	0.025529193
202	0xbd2b2e1f	-0.04179203
203	0x3d113a6e	0.035456114
204	0x3cbeb7d8	0.023281023
205	0x3d325923	0.04354204
206	0x3c93136c	0.017953597
207	0x3d357cdc	0.04430853
208	0xbd159162	-0.0365156
209	0xbce9de04	-0.028548248
210	0xbd1cd537	-0.038289275
211	0x3d11c044	0.03558375
212	0xbd051f9e	-0.032500856
213	0xbcd440af	-0.02590975
214	0x3cf186fb	0.029483309
215	0x3ba5292d	0.005040309
216	0xbb227f20	-0.002479501
217	0xbcbf2d9e	-0.023337182
218	0xbbae135d	-0.005312367
219	0xbbed5adf	-0.0072434987
220	0xbd09bdd9	-0.03362832
221	0xbce5591f	-0.027996598
222	0x3d2e81e5	0.042604346
223	0x3d1b30e4	0.037888423
224	0x3d057d05	0.03258993
225	0xbd101f26	-0.035185955
226	0xbc34740a	-0.011013994
227	0xbcc33645	-0.023829589
228	0xbd264f7c	-0.040603146
229	0x3cece18e	0.028916147
230	0x3d048759	0.03235564
231	0x3d12d884	0.035851017
232	0xbd1c765c	-0.038198814
233	0xbc30953c	-0.010777768
234	0x3d2d6a58	0.042337745
235	0xbca8f07f	-0.02062249
236	0xbc92447b	-0.01785492
237	0x3cb942fb	0.022614947
238	0x3d16ec65	0.036846537
239	0xbc372ad5	-0.011179646
240	0x3bd20bfc	0.00641012
241	0x3abf962e	0.0014616901
242	0x3c5dfc40	0.013548911
243	0x3bc2411f	0.005928173
244	0xbc21675e	-0.009851305
245	0xbcb228ab	-0.021747908
246	0xbcf5660d	-0.029955888
247	0xbc2c93b6	-0.010533264
248	0xbcf204e7	-0.029543353
249	0x3c048a16	0.008089563
250	0xbd14cf1e	-0.036330335
251	0xbcd3db9b	-0.025861552
252	0x3a954c7f	0.0011390595
253	0xbd1a768b	-0.037710708
254	0x3cab62f4	0.020921208
255	0xbcb82a28	-0.02248104

bias f4 [50]
0	0x3d342085	0.043976326
1	0x3b809cc8	0.00392494
2	0xbcf19aab	-0.029492697
3	0x3d1f8621	0.038946275
4	0x3d053c86	0.032528423
5	0xbc871a47	-0.016492022
6	0xbc58b23f	-0.013226091
7	0xbd09af03	-0.03361417
8	0xbc1e6d90	-0.009669676
9	0x3d1cca79	0.03827903
10	0xbc8ace6f	-0.016944138
11	0xbd2c12ea	-0.042010225
12	0xbc2b5208	-0.0104565695
13	0xbcf4d5fe	-0.029887196
14	0xbcf5a952	-0.029987965
15	0x3925b82c	0.00015804236
16	0x3c90c602	0.017672542
17	0xbd29b68c	-0.041433856
18	0x3c396245	0.011314933
19	0xbcb325ce	-0.021868613
20	0xbd228f28	-0.039687306
21	0x3caea747	0.021319998
22	0x3d0df1aa	0.034654297
23	0x3c347025	0.011013065
24	0x3c8ed787	0.017436756
25	0xbca99da0	-0.020705044
26	0x3c12e523	0.008965763
27	0x3d03cb83	0.032176506
28	0xbcce3ccb	-0.025175473
29	0x3c254b2d	0.010088724
30	0x3bee8aae	0.0072797155
31	0xbc87aef8	-0.016562924
32	0x3d31aa59	0.043375347
33	0xbcd78d53	-0.026312506
34	0x3bcb1a43	0.006198199
35	0x3bdc0a90	0.0067151263
36	0x3d1f00ab	0.038818996
37	0xbca1a241	-0.019730689
38	0xbc94fbee	-0.018186536
39	0x393fd2b9	0.0001829368
40	0xbb7e36b6	-0.0038789934
41	0x3c09c0a4	0.0084077455
42	0xbd3a3013	-0.045456003
43	0xbd39c989	-0.045358215
44	0xbc754bc0	-0.0149716735
45	0x3d111eab	0.035429638
46	0xbc0f657c	-0.008752223
47	0x3901f1f5	0.00012392535
48	0xbd0456f5	-0.03230949
49	0xbacea2c4	-0.0015765061

weight f4 [50, 50]
0	0xbe10ce18	-0.14141119
1	0x3d92e98e	0.07173453
2	0xbd23ce75	-0.039991815
3	0xbe06ab39	-0.13151254
4	0xbcc3ad5c	-0.023886375
5	0xbd4336a6	-0.04765954
6	0x3d29f060	0.041489005
7	0xbd1b9294	-0.037981585
8	0xbc221bbf	-0.0098943105
9	0x3dddcb6a	0.10829814
10	0x3c118596	0.008881947
11	0x3de46371	0.111517794
12	0x3d4d5bee	0.0501365
13	0x3e01a98d	0.12662335
14	0xbbf32357	-0.0074199843
15	0xbda799f6	-0.081836626
16	0x3df6576b	0.120283924
17	0xbd15b5b8	-0.036550254
18	0x3d2dc394	0.042422846
19	0xbd35b3b5	-0.044360835
20	0x3ce5a2ab	0.028031668
21	0xbc93db16	-0.018048804
22	0x3db3b05a	0.08773871
23	0x3d1e285a	0.0386127
24	0x3da2867b	0.07935806
25	0xbdd8bfa9	-0.10583431
26	0xbd9fa37d	-0.07794855
27	0x3dffd4d3	0.12491765
28	0x3de148a1	0.11000181
29	0xbc294b6b	-0.010332922
30	0xbdaa14c0	-0.08304739
31	0xbd4f78c2	-0.050652273
32	0x3db9bd6f	0.09069335
33	0x3da1e323	0.07904651
34	0x3dab3351	0.08359397
35	0x3df96ed6	0.121793434
36	0x3e01b576	0.12666878
37	0x3d049760	0.032370925
38	0x3db5f8ef	0.08885371
39	0xbd550e6a	-0.0520157
40	0xbd59274c	-0.053015992
41	0xbc979f00	-0.018508434
42	0xbdcf0de9	-0.10110075
43	0xbda0940b	-0.07840737
44	0x3d404b42	0.04694677
45	0xbdbcca8e	-0.09218322
46	0x3d97446a	0.07386096
47	0xbda82584	-0.082102805
48	0x3e08577c	0.13314623
49	0x3dc75bf6	0.09734337
50	0x3c1c2112	0.009529369
51	0x3cacfe10	0.02111724
52	0x3d21abfd	0.03947066
53	0xbde87dbf	-0.11352109
54	0xbb9bd0be	-0.0047551086
55	0xbdc594a4	-0.096474916
56	0xbdd092c0	-0.1018424
57	0xbd923fb0	-0.07141054
58	0xbdfea20e	-0.12433253
59	0x3cf3dadb	0.029767444
60	0x3dd93cb4	0.10607281
61	0xbdb22ea6	-0.08700304
62	0xbdec7c91	-0.11547197
63	0xbda6f0f8	-0.0815143
64	0x3dae4d50	0.0851084
65	0xbd81edd6	-0.06344192
66	0xbe025777	-0.12728678
67	0xbc0bcaf5	-0.008532275
68	0xbe05be21	-0.1306081
69	0xbe01a4c7	-0.12660514
70	0x3defcbf5	0.117088236
71	0x3d5b24b9	0.05350182
72	0x3d6a1248	0.05714634
73	0xbc87d732	-0.016582105
74	0xbde41eb0	-0.11138666
75	0xbd85fd05	-0.065424
76	0x3d24653f	0.04013562
77	0x3d2e10b4	0.042496398
78	0x3da09152	0.07840218
79	0xbe0f55c3	-0.13997559
80	0xbc661ff8	-0.014045708
81	0xbd6827a8	-0.056678444
82	0x3c42f8c3	0.01190013
83	0xbc010d17	-0.007876656
84	0xbd094845	-0.033516187
85	0xbd9764cc	-0.07392272
86	0xbbc90e2a	-0.0061357217
87	0xbdbc2b7e	-0.09187983
88	0x3de8c1f9	0.11365122
89	0xbdc20a75	-0.09474651
90	0xbde5ffbc	-0.11230418
91	0xbe036994	-0.12833244
92	0xbd615ec6	-0.055022024
93	0xbd2b35b3	-0.04179926
94	0x3dd87fa0	0.105712175
95	0x3cb832c3	0.022485143
96	0x3dfc59a6	0.123217866
97	0x3db74db2	0.08950366
98	0x3dccc5c7	0.099986605
99	0xbb402802	-0.0029320722
100	0xbdca42fc	-0.098760575
101	0xbe0cc094	-0.13745338
102	0x3d975aed	0.073903896
103	0x3d059303	0.032610904
104	0x3d94d8f1	0.07267941
105	0xbdc333c3	-0.09531357
106	0xbc3620b4	-0.0111161955
107	0x3dcc5c54	0.09978548
108	0xbc835486	-0.016031515
109	0xbc6bdbbd	-0.014395651
110	0x3ce8eb4d	0.028432513
111	0xbc3e8736	-0.0116289165
112	0x3d4b7af7	0.049677815
113	0xbe054a6c	-0.13016671
114	0xbdf31c59	-0.11870641
115	0x3dc075a3	0.093974374
116	0xbda50969	-0.080584355
117	0x3dd528d7	0.1040818
118	0x3d97f8fe	0.07420538
119	0xbdced144	-0.10098508
120	0x3dc6be57	0.09704273
121	0x3c143908	0.0090468
122	0x3cae2ddf	0.021262107
123	0xbd60f72a	-0.054923214
124	0xbde1158c	-0.10990438
125	0xbe0989dc	-0.13431495
126	0x3aca8798	0.0015451787
127	0x3d387c0e	0.045040183
128	0x3c180a80	0.009279847
129	0xbdc90588	-0.09815508
130	0x3d982c65	0.074303426
131	0x3ceea93a	0.029133428
132	0x3d2ba67b	0.041906815
133	0x3dd4c992	0.10390009
134	0xbe0d8159	-0.13818873
135	0xbd3a0506	-0.045414947
136	0xbd8a49bf	-0.06752347
137	0xbd3f45bc	-0.046697363
138	0xbd71d259	-0.059038494
139	0x3d09f8f5	0.03368469
140	0xbe0e04a9	-0.13868965
141	0x3e08659e	0.13320014
142	0x3da7e575	0.08198062
143	0x3dac231c	0.08405134
144	0x3d95db60	0.07317233
145	0xbd9253bf	-0.071448795
146	0xbd7e3f7d	-0.062072266
147	0x3df98015	0.12182633
148	0x3e0a6126	0.13513622
149	0xbc074a63	-0.008257481
150	0x3da3430d	0.07971773
151	0x3d7b6af3	0.06138129
152	0x3d66703e	0.056259386
153	0xbd598223	-0.053102624
154	0xbd539d7c	-0.05166386
155	0x3d8f1631	0.069866545
156	0xbd05eb89	-0.032695327
157	0xbd5ea2e3	-0.05435456
158	0x3d97a9c7	0.07405429
159	0x3e07a29d	0.13245626
160	0xbe08c94d	-0.1335804
161	0xbd495ae3	-0.049158942
162	0xbdefb07a	-0.11703582
163	0x3d8e8835	0.06959573
164	0x3cfb6896	0.030689519
165	0x3d263fc3	0.04058815
166	0xbc8abef7	-0.016936762
167	0xbd90940a	-0.07059486
168	0xbe02b76e	-0.12765285
169	0x3dbdc9b1	0.09266985
170	0x3d214309	0.03937057
171	0x3de4fa2e	0.111805305
172	0xbdba95ec	-0.091106266
173	0x3dc10bbb	0.094260655
174	0x3da62264	0.08112028
175	0xbd7a909c	-0.061173066
176	0x3d0bd3c9	0.03413752
177	0xbda434c4	-0.08017877
178	0xbddc9173	-0.1076993
179	0x3cc214a9	0.023691492
180	0x3d953bdd	0.07286809
181	0xbe08e2ba	-0.1336774
182	0xbdab70b7	-0.08371108
183	0x3cf7fb1e	0.03027111
184	0x3cf5444f	0.029939799
185	0x3d8a7d7f	0.06762218
186	0x3dfb67db	0.12275668
187	0x3dddef6a	0.1083668
188	0x3d355d93	0.044278692
189	0x3d7d349d	0.061817754
190	0x3d632fb0	0.0554654
191	0xbd15adac	-0.03654258
192	0xbde38e8b	-0.11111172
193	0x3d88bc32	0.066765204
194	0x3da349c5	0.07973055
195	0xbe042a4c	-0.1290676
196	0x3d234909	0.039864574
197	0xbd6a1527	-0.05714908
198	0xbd739497	-0.05946788
199	0x3d4c2408	0.04983905
200	0x3dd79f64	0.10528448
201	0xbe050d30	-0.12993312
202	0xbe104f9d	-0.1409287
203	0xbdc9e025	-0.09857205
204	0x3ddf397e	0.10899638
205	0xbdcd75e2	-0.1003225
206	0xbd9804c4	-0.07422784
207	0x3e0fbc83	0.14036755
208	0xbdaeeed5	-0.08541647
209	0xbdd287e2	-0.10279824
210	0x3d5fac73	0.05460782
211	0xbd157024	-0.0364839
212	0xbdf16394	-0.11786571
213	0xbda8155a	-0.082071975
214	0xbdd7a2d5	-0.105291046
215	0x3c63587a	0.013876075
216	0xbd835a33	-0.064136885
217	0xbd38d3ca	-0.045123853
218	0xbe004412	-0.12525967
219	0x3d418dfc	0.047254547
220	0xbd7d12a6	-0.061785363
221	0x3da33bfb	0.07970425
222	0x3d256fc5	0.040389795
223	0x3cd07222	0.025445048
224	0xbe050d12	-0.12993267
225	0xbdbab43d	-0.09116409
226	0x3dbd7442	0.0925069
227	0x3e02dbe1	0.1277919
228	0x3e05e58f	0.13075851
229	0x3dcfdfa7	0.1015008
230	0x3d8ddcb4	0.069268614
231	0xbcc342ad	-0.023835504
232	0xbbe46466	-0.0069699762
233	0x3d9d7211	0.07687772
234	0xbd21063e	-0.039312594
235	0xbc42c7e3	-0.011888477
236	0xbd439d01	-0.047757152
237	0xbdc2e262	-0.09515835
238	0x3d9e785a	0.07737799
239	0xbdab4977	-0.08363622
240	0x3c46525c	0.012104597
241	0x3df2f825	0.11863736
242	0xbe01e9c1	-0.12686826
243	0xbd853e31	-0.06506003
244	0xbdd53083	-0.104096435
245	0x3da71cd1	0.08159793
246	0x3df5696e	0.11983
247	0x3db45589	0.08805377
248	0x3d3fe3fe	0.04684829
249	0xbdad6de2	-0.08468224
250	0xbdbf5eb4	-0.09344235
251	0x3d1e2767	0.038611796
252	0xbde75e2f	-0.11297261
253	0x3af1ec47	0.0018457257
254	0x3cea164f	0.02857509
255	0x3d809237	0.06277888

bias f4 [50]
0	0x3da78e19	0.081814
1	0xbe030e65	-0.1279846
2	0xbdbdd37b	-0.09268852
3	0xbd8f18fa	-0.06987186
4	0x3cd14d90	0.02554968
5	0x3cc309fa	0.023808468
6	0xbe0f1f7a	-0.13976851
7	0x3d6ae877	0.057350602
8	0xbd24d076	-0.040237866
9	0xbb8e6270	-0.0043452308
10	0xbd09482f	-0.033516105
11	0xbccc1b49	-0.024915354
12	0xbd2a03c5	-0.0415075
13	0xbcd74795	-0.02627925
14	0xbccc82e1	-0.024964752
15	0x3de4c2dd	0.1116998
16	0x3c582716	0.013192913
17	0x3d8146eb	0.06312355
18	0xbdc5d9b2	-0.09660663
19	0x3d8a89f8	0.06764597
20	0x3dd792f9	0.1052608
21	0xbd5d247e	-0.05398988
22	0xbdef18e4	-0.116746694
23	0x3d41baa4	0.047297135
24	0xbdd56218	-0.104191005
25	0x3da388a1	0.07985044
26	0xbdc19ea9	-0.0945409
27	0xbdbfa2dc	-0.09357235
28	0xbd8dd765	-0.06925849
29	0xba88cab7	-0.001043639
30	0x3d9a779f	0.07542347
31	0x3c58294c	0.01319344
32	0x3d2b9e4c	0.04189901
33	0x3e0e40fa	0.13891974
34	0xbde197a5	-0.11015252
35	0x3dbe2bf9	0.09285731
36	0xbc9f57ef	-0.01945111
37	0xbdee1254	-0.116245896
38	0x3e081810	0.13290429
39	0x3c368b8d	0.01114167
40	0x3d6cb0a3	0.05778564
41	0x3dae5deb	0.08514007
42	0xbd9f198a	-0.07768543
43	0x3dbe6046	0.092957065
44	0x3dd4133a	0.1035523
45	0xbd96fa7d	-0.073719956
46	0xba6e1eec	-0.0009083587
47	0x3d95a557	0.07306927
48	0xbc71f9f9	-0.014769071
49	0x3d857693	0.06516757

weight f4 [100, 50]
0	0xbd51e3cd	-0.05124264
1	0xbd0b97c8	-0.034080297
2	0xbd04bb45	-0.032405157
3	0x3c8fd5b9	0.017557966
4	0xbdc9dbce	-0.098563775
5	0x3cd6806f	0.026184289
6	0x3da740dc	0.08166668
7	0xbd1ae664	-0.037817374
8	0x3c88484c	0.016636036
9	0xbc3bb23e	-0.0114560705
10	0x3d6ceac2	0.05784107
11	0x3dffae87	0.1248446
12	0xbd8594a8	-0.065224946
13	0x3d7db5d3	0.06194098
14	0xbcdec7f8	-0.027194962
15	0xbdcf3725	-0.1011794
16	0x3dc5a76c	0.09651074
17	0x3d135d50	0.03597766
18	0xbe0a32d8	-0.13495958
19	0x3d00c5cc	0.031438634
20	0xbd0b0700	-0.033942223
21	0x3e022288	0.12708485
22	0xbcbf3a50	-0.023343235
23	0xbda5f6b7	-0.08103698
24	0xbda32f5c	-0.079680175
25	0xbc0d4c53	-0.008624154
26	0x3dfee450	0.12445891
27	0x3dfb7964	0.12279013
28	0x3ddbfdaf	0.10741746
29	0x3df3d448	0.11905724
30	0xbbc5a215	-0.0060312846
31	0xbd362090	-0.044464648
32	0x3dfacca3	0.122460626
33	0xbe04b419	-0.12959327
34	0x3dd6b6f7	0.104841165
35	0x3b5cebfb	0.0033709991
36	0xbd8dc75f	-0.06922793
37	0x3d96ba76	0.07359783
38	0xbd9d3437	-0.07675975
39	0x3cc96c7c	0.024587862
40	0x3d5cb93d	0.053887594
41	0xbdc968f0	-0.09834468
42	0x3dee1a43	0.11626103
43	0xbd78c67b	-0.06073616
44	0xbd49775d	-0.0491861
45	0x3e05bb88	0.13059819
46	0x3e15e490	0.14637971
47	0x3d7211f1	0.05909914
48	0x3e069f1f	0.13146637
49	0x3dcad0d4	0.09903112
50	0x3dcbebd9	0.09957094
51	0x3decf8c1	0.115708835
52	0xbc7246be	-0.014787374
53	0xbd9c4f7c	-0.07632348
54	0x3e0fb241	0.14032842
55	0x3e02293e	0.12711045
56	0xbda90a91	-0.082539685
57	0xbe0666cc	-0.13125151
58	0x3deea9a7	0.11653452
59	0xbd6be85e	-0.05759465
60	0xbd2db472	-0.042408414
61	0xbd92a057	-0.07159489
62	0x3d706870	0.05869335
63	0xbdcff6e9	-0.10154516
64	0x3dc56a0a	0.09639366
65	0x3df9bee0	0.1219461
66	0xbd6796f7	-0.056540456
67	0xbe045d4a	-0.12926212
68	0xbc4e49eb	-0.012590866
69	0xbe047f2a	-0.12939134
70	0xbdbba9cb	-0.09163245
71	0xbdecbe22	-0.115597025
72	0xbde25e40	-0.11053133
73	0xbd6aeeab	-0.057356518
74	0x3d81d03a	0.06338544
75	0xbd8ae8a4	-0.06782654
76	0x3e05736b	0.1303231
77	0xbd356e4b	-0.044294637
78	0x3db75bbd	0.089530446
79	0x3d72b402	0.0592537
80	0xbc9c8916	-0.019108336
81	0xbc0ee608	-0.008721836
82	0xbda8ca28	-0.08241683
83	0xbdf4da08	-0.11955649
84	0x3d814286	0.063115165
85	0x3d9f5fb3	0.07781925
86	0x3cfe5486	0.031046163
87	0xbca6019d	-0.020264441
88	0xbdaf5be8	-0.085624516
89	0xbc370be6	-0.01117227
90	0xbd733fff	-0.059387203
91	0x3d5e8114	0.054322317
92	0xbe05b1cf	-0.1305611
93	0x3d4cfe25	0.05004706
94	0x3cf4db13	0.029889619
95	0xbd6a74c8	-0.057240278
96	0xbdc43c79	-0.09581847
97	0xbdfe549e	-0.12418483
98	0x3de6fef9	0.11279101
99	0x3da1d821	0.079025514
100	0xbdfdbf02	-0.123899475
101	0x3dccaafb	0.099935494
102	0xbe0328bf	-0.12808512
103	0x3c942aa1	0.018086733
104	0x3e0eb429	0.13935913
105	0x3da95004	0.08267215
106	0xbd443be1	-0.047908667
107	0xbd8d9565	-0.0691326
108	0x3dae7d2d	0.08519969
109	0x3d988e1d	0.07448981
110	0xbe1348df	-0.14383267
111	0x3dac060d	0.083995916
112	0xbd861526	-0.065470025
113	0x3d6e6076	0.05819746
114	0x3ddfbe58	0.10924977
115	0xbdf75015	-0.12075821
116	0x3cee1df5	0.029067019
117	0xbca07d0f	-0.019590883
118	0x3e05451f	0.13014649
119	0xbd8f69fa	-0.07002635
120	0x3d8be2b1	0.06830347
121	0xbda16498	-0.07880515
122	0xbd592828	-0.05301681
123	0x3de5e4ee	0.112253055
124	0xbd6c9a93	-0.0577646
125	0x3d5e9817	0.054344263
126	0x3e02cf1e	0.12774321
127	0x3dfdfc96	0.124016926
128	0x3d0aaf43	0.03385855
129	0xbd4c2cb3	-0.049847316
130	0x3d4a05c1	0.049321894
131	0xbdb45469	-0.088051625
132	0x3cf1acbc	0.029501311
133	0xbcb4244b	-0.021989962
134	0x3e12f498	0.14351118
135	0x3c83795e	0.016049083
136	0xbdd2f80d	-0.10301218
137	0xbe0c0999	-0.13675536
138	0x3d0104be	0.031498663
139	0xbd9f0a84	-0.077656776
140	0x3c9fc8ff	0.019505022
141	0xbdbbdda4	-0.09173134
142	0xbe01e993	-0.12686758
143	0xbda6dea5	-0.08147935
144	0x3ce8916d	0.028389657
145	0x3b95278d	0.004551834
146	0xbd8a15b6	-0.06742422
147	0x3d912c87	0.07088571
148	0x3d08d9b2	0.033410735
149	0x3e10ca63	0.14139704
150	0x3bf37f91	0.0074309786
151	0xbc39d8b1	-0.011343167
152	0x3deaf2a2	0.1147206
153	0x3e08e233	0.13367538
154	0x3dd3bb58	0.10338467
155	0x3e093d94	0.13402396
156	0xbdddb8e3	-0.1082628
157	0x3bbd44f0	0.0057760403
158	0x3c26d49d	0.010182527
159	0xbd8d0d45	-0.068872966
160	0xbd26a7dd	-0.04068743
161	0xbbb6394c	-0.0055610295
162	0x3da5e4df	0.08100294
163	0x3da77220	0.081760645
164	0x3df137d1	0.11778224
165	0x3d8b4b72	0.068014994
166	0xbdab077e	-0.083510384
167	0xbdca643f	-0.09882402
168	0xbcfdce21	-0.030982079
169	0x3d25e1be	0.040498488
170	0xbd847b4b	-0.06468829
171	0x3ba16b47	0.0049261185
172	0x3bcb0b48	0.006196413
173	0xbc5daf32	-0.013530539
174	0xbde15f99	-0.11004562
175	0xbd13f47f	-0.03612184
176	0xbcc1e3b5	-0.02366815
177	0xbdfc72ba	-0.1232657
178	0xbcb27b7d	-0.0217874
179	0xbdf18f40	-0.11794901
180	0x3c07e079	0.008293265
181	0xbb5260e0	-0.00321012
182	0xbe02e40e	-0.12782308
183	0x3cc13eee	0.023589578
184	0x3dfd7506	0.12375836
185	0x3cfef1fa	0.031121243
186	0x3db1f4f5	0.086893
187	0xbdae94a6	-0.08524446
188	0x3d8102e2	0.06299378
189	0x3dd24b92	0.1026832
190	0x3ce96718	0.028491542
191	0x3d1fc905	0.039010067
192	0x3e07095f	0.13187169
193	0x3c9c2781	0.019061806
194	0x3db3e67f	0.08784198
195	0xbdf55d5e	-0.11980699
196	0xbd6ea1ed	-0.058259893
197	0xbd8b1e31	-0.06792868
198	0xbdba1d3f	-0.090876095
199	0xbe096f76	-0.13421425
200	0x3d9c5f8e	0.07635413
201	0xbd91e1e2	-0.07123162
202	0x3df3cc1c	0.11904165
203	0x3deebfc9	0.11657674
204	0x3d25c266	0.040468596
205	0xbd4a15ef	-0.049337324
206	0xbd36cd52	-0.044629402
207	0x3bfc74ff	0.0077043767
208	0xbe085bfb	-0.13316338
209	0xbd8ab07d	-0.06771944
210	0x3d9a7e57	0.07543629
211	0xbd865ec0	-0.06561041
212	0xbe097187	-0.13422213
213	0x3c6c9170	0.014438972
214	0xbcbd4b17	-0.023107095
215	0xbdc1c1d2	-0.094607964
216	0xb95a9ea8	-0.00020849204
217	0x3cc656c2	0.024211291
218	0x3d80e2e5	0.06293277
219	0xbe0339ae	-0.12814972
220	0xbd7e5641	-0.062093977
221	0xbdab0727	-0.083509736
222	0x3d312dd4	0.043256596
223	0xba007d7a	-0.000490151
224	0x3c33fceb	0.010985593
225	0xbd70f953	-0.058831524
226	0xbd823840	-0.06358385
227	0xbd2055cd	-0.039144326
228	0x3ccc548b	0.024942657
229	0xbdcca667	-0.09992676
230	0x3c81d789	0.015849845
231	0x3dca8235	0.09888116
232	0xbd74df6c	-0.059783384
233	0x3dde60cc	0.10858306
234	0xbd56522b	-0.052324455
235	0x3c2e6848	0.01064498
236	0xbc3d74cf	-0.011563494
237	0xbdecaac7	-0.11556011
238	0x3ce55766	0.027995776
239	0xbd087525	-0.033314843
240	0x3d3d6398	0.046237558
241	0xbdcefaed	-0.10106454
242	0x3d952f0d	0.07284365
243	0xbe05455e	-0.13014743
244	0xbd4c42c7	-0.04986837
245	0x3dea2187	0.11432176
246	0xbcb42980	-0.021992445
247	0x3ca84d6f	0.020544736
248	0xbddbeb4a	-0.10738237
249	0xbd8db12d	-0.06918559
250	0xbddfc144	-0.10925534
251	0x3bf63e93	0.0075147836
252	0xbd6cd9dc	-0.057824954
253	0xbc775a0d	-0.015097153
254	0x3dee4547	0.11634307
255	0x3de7a24e	0.11310254

bias f4 [100]
0	0x3d7f9c22	0.06240476
1	0xbd31ff18	-0.043456167
2	0x3cdad182	0.02671123
3	0x3c6e1f4e	0.014533831
4	0x3d2abbc2	0.041682966
5	0xbccf288d	-0.02528789
6	0x3ba07b30	0.0048974976
7	0xbde0724a	-0.10959299
8	0x3dd7f93b	0.10545584
9	0xbde545a1	-0.11194921
10	0x3df4fda9	0.11962444
11	0xbe0a53dd	-0.13508554
12	0xbe06cd4e	-0.13164255
13	0xbde63b1b	-0.11241742
14	0xbc4c6715	-0.012475749
15	0xbe0c7305	-0.13715751
16	0x3d01d722	0.031699307
17	0xbdeeb300	-0.11655235
18	0xbb047310	-0.0020210184
19	0xbdb3638e	-0.08759223
20	0x3c86287c	0.016376726
21	0x3e0557f2	0.1302183
22	0x3dcde4ca	0.10053404
23	0xbdbda0f0	-0.09259212
24	0x3d772319	0.060336206
25	0x3d49efdd	0.049301017
26	0x3e024417	0.12721287
27	0xbb0aa543	-0.0021155633
28	0x3dd01663	0.1016052
29	0x3d40d5bc	0.047078833
30	0x3df7db32	0.12102355
31	0xbe0b1193	-0.13580923
32	0x3c97cbc3	0.018529778
33	0xbd68dcc5	-0.056851167
34	0xbda0d3bd	-0.07852886
35	0xbddf62de	-0.10907529
36	0xbd916e15	-0.071010746
37	0x3db4e10c	0.08831987
38	0x3d7dbaf1	0.06194586
39	0xbd4cde92	-0.050016947
40	0x3d5241fe	0.051332466
41	0xbe136bdd	-0.14396615
42	0x3d24104c	0.040054604
43	0x3ddc8023	0.10766628
44	0x3d8f689d	0.07002375
45	0xbddc7918	-0.10765284
46	0x3d321254	0.04347451
47	0xbd8c866c	-0.068615764
48	0x3ce7053f	0.028200744
49	0xbcdf0377	-0.027223332
50	0xbdcad6b9	-0.09904236
51	0xbd9bab6c	-0.076010555
52	0x3d8b86a5	0.06812791
53	0xbdd9dc3e	-0.10637711
54	0xbe0036f7	-0.12520967
55	0x3d1186e5	0.035529036
56	0xbb1f5b12	-0.0024315757
57	0x3e1ce928	0.15323317
58	0xbd244b65	-0.040110964
59	0xbd37bdb2	-0.044858642
60	0xbccdec18	-0.025136992
61	0xbc75230c	-0.014961969
62	0x3dad47fd	0.08460996
63	0x3bb78c41	0.0056014364
64	0x3dee035e	0.11621736
65	0x3c69c8a6	0.01426903
66	0x3da56659	0.08076162
67	0xbce5b3ba	-0.028039802
68	0xbcb181fd	-0.021668429
69	0x3d312cc8	0.043255597
70	0xbd887285	-0.06662468
71	0x3c42ebe3	0.01189706
72	0xbdb6d6e7	-0.08927708
73	0xbdf24e35	-0.11831323
74	0xbdebe3c1	-0.1151805
75	0xbbd4da4d	-0.00649575
76	0xbd8b6bf4	-0.068077
77	0xbd60b9fc	-0.05486487
78	0xbdfb1737	-0.12260287
79	0x3de057cd	0.10954247
80	0x3de85363	0.1134403
81	0xbc739281	-0.014866472
82	0x3dab1f65	0.083555974
83	0xbca0777e	-0.019588228
84	0xbce7a46d	-0.028276647
85	0x3c0f531c	0.008747842
86	0x3d0ab579	0.033864472
87	0x3dfe7d29	0.12426216
88	0xbe06c9dd	-0.13162942
89	0xbe112d65	-0.14177473
90	0x3d62d78e	0.05538135
91	0xbd6c94ed	-0.057759214
92	0x3d9f7475	0.07785884
93	0xbd9a755f	-0.07541918
94	0x3da09dad	0.07842574
95	0xbd36dd2e	-0.044644527
96	0xbb2de4b4	-0.0026534023
97	0xbd251126	-0.040299557
98	0xbdaf97c8	-0.08573872
99	0xbd7e2fbe	-0.06205725

weight f4 [100, 100]
0	0xbd8b3fbd	-0.067992665
1	0xbc6fe1e7	-0.014641262
2	0x3da4f883	0.08055212
3	0xbda04ea9	-0.07827503
4	0xbbb3a29a	-0.00548203
5	0xbd4c4e1d	-0.049879182
6	0x3db186d2	0.08668293
7	0xbd7a62b2	-0.06112928
8	0x3c526da7	0.012843526
9	0x3d8c0511	0.06836904
10	0x3c9774d3	0.018488323
11	0x3d73e457	0.059543934
12	0xbd8c3850	-0.06846678
13	0xbc4476da	-0.011991227
14	0x3d559865	0.052147288
15	0xbdb304e2	-0.08741166
16	0x3dbd4756	0.09242122
17	0xbd1153a0	-0.03548014
18	0x3d9b014c	0.07568607
19	0x3dbc157a	0.09183784
20	0x3d66db64	0.05636157
21	0x3c6390e7	0.013889528
22	0xbd757853	-0.059929203
23	0x3c86ce8d	0.016455913
24	0x3cdd302c	0.02700051
25	0xbd98e498	-0.07465476
26	0xbdc62ec2	-0.09676887
27	0xbd72f516	-0.059315763
28	0xbd910f3a	-0.07082982
29	0x3d80b5ea	0.06284697
30	0xbcbc6286	-0.022996198
31	0xbd8e140c	-0.069374174
32	0xbdae2706	-0.08503537
33	0x3dd73f2d	0.10510097
34	0xbd105910	-0.035241187
35	0xbcd41987	-0.025891079
36	0xbd5dc3e9	-0.054141913
37	0xbd8346ef	-0.06410014
38	0xbdb94b22	-0.090475336
39	0xbda4e5d3	-0.08051648
40	0x3d0407b6	0.032233916
41	0xbd95062a	-0.07276566
42	0x3dc60f6a	0.09670909
43	0x3ca746dc	0.02041953
44	0x3ce1bac7	0.027554883
45	0xbd532e15	-0.05155762
46	0x3cceb3e3	0.025232261
47	0x3d6b5b27	0.057459977
48	0xbd07f2da	-0.033190586
49	0x3d9cf0fe	0.07663153
50	0x3da25340	0.07926035
51	0xbd30d9f0	-0.04317659
52	0xbd47477f	-0.04865217
53	0xbb904baa	-0.004403551
54	0xbda2460b	-0.07923516
55	0x3ce9dd5a	0.028547931
56	0x3d7c94d2	0.061665364
57	0xbd7f346d	-0.062305856
58	0xbd0fd1b9	-0.035112116
59	0xbda51f61	-0.08062626
60	0xbda06c65	-0.078331746
61	0x3ca7201c	0.020401053
62	0xbd86d289	-0.06583125
63	0x3c9da0fc	0.019241802
64	0x3da797ee	0.08183275
65	0xbcbfbb96	-0.023404878
66	0x3d8cdf8d	0.068785764
67	0xbcfdc3a0	-0.03097707
68	0x3ca2f914	0.01989416
69	0x3d95dfb5	0.07318059
70	0x3bae5b9a	0.0053209784
71	0x3dd280a3	0.10278442
72	0x3d813945	0.063097514
73	0x3d182a46	0.03714969
74	0xbd0f5b52	-0.0349992
75	0xbd55a0ca	-0.052155294
76	0xbd437847	-0.047722127
77	0x3d3bd709	0.04585937
78	0x3b8ad225	0.004236477
79	0x3d11aa2e	0.035562687
80	0x3d3cea2d	0.046121765
81	0xbdae3d8c	-0.08507833
82	0xbd2dc24a	-0.042421617
83	0x3dbaa4e7	0.09113484
84	0xbcb7fca1	-0.02245933
85	0x3bbb4ff3	0.005716318
86	0x3ce79e43	0.028273707
87	0x3ce29d82	0.027662996
88	0xbda1978e	-0.07890235
89	0xbd8ed714	-0.06974617
90	0x3d0f0987	0.034921195
91	0xbc8fb26d	-0.017541135
92	0xbd8ad2f4	-0.06778517
93	0xbc4d846d	-0.01254378
94	0xbd518bf7	-0.05115887
95	0xbb769800	-0.003762722
96	0xbd9719fc	-0.07378003
97	0x3cbbc652	0.022921715
98	0x3d41805b	0.04724155
99	0x3d958e67	0.07302552
100	0x3da022c4	0.07819131
101	0x3dc1c0a3	0.09460571
102	0x3d54b13b	0.051926833
103	0xbdab4d87	-0.083643965
104	0x3dc38897	0.09547537
105	0xbc3ae49a	-0.011407042
106	0x3d5fe96d	0.05466597
107	0x3d74664b	0.059667867
108	0x3d317ed0	0.04333383
109	0xbda32943	-0.079668544
110	0x3bb0f293	0.005400011
111	0xbd56de80	-0.052458286
112	0xbcef6088	-0.029220834
113	0x3db1d61c	0.08683416
114	0xbcab981b	-0.020946553
115	0xbca108e7	-0.019657565
116	0x3d230797	0.03980216
117	0x3d573086	0.05253651
118	0x3bba7bb4	0.005691016
119	0x3d1572e8	0.036486536
120	0xbd5e8fda	-0.054336406
121	0xbd9d17ba	-0.07670541
122	0xbd93b452	-0.07212128
123	0x3d811e72	0.06304635
124	0x3db6337c	0.088965386
125	0x3c41e848	0.011835165
126	0x3c123149	0.008922883
127	0x3b2e3c02	0.002658606
128	0xbbe125cd	-0.0068709613
129	0xbd592c70	-0.053020895
130	0xbcd567c1	-0.02605045
131	0x3d18a944	0.0372708
132	0xbd2c034c	-0.04199533
133	0x3db22349	0.08698136
134	0x3d9da004	0.07696536
135	0x3dc6de68	0.097103894
136	0x3d21f700	0.0395422
137	0x3cb4f03a	0.022087205
138	0x3dc594d4	0.09647527
139	0xbd1c7ce3	-0.03820504
140	0xbc8cfb84	-0.017209776
141	0xbda39d7a	-0.07989021
142	0xbd3c6796	-0.045997225
143	0xbb913e8b	-0.0044325045
144	0xbd685d92	-0.05672986
145	0xbda3e524	-0.080026895
146	0xbd2253c5	-0.03963067
147	0x3ce9a6f6	0.028521996
148	0xbd43cc67	-0.047802355
149	0xbd87e8e9	-0.06636221
150	0xbd3ba5a4	-0.045812264
151	0x3cac8e17	0.021063847
152	0x3d3ee22f	0.046602424
153	0x3bba0a2e	0.005677483
154	0xbdb1f39d	-0.08689044
155	0x3dab9ef8	0.0837993
156	0x3d8b5a1c	0.068042964
157	0x3caa2742	0.020770673
158	0x3d93021a	0.07178135
159	0x3a43014c	0.0007438853
160	0x3d8904e7	0.06690388
161	0x3d0f7d30	0.035031497
162	0xbd77408c	-0.06036429
163	0xbd8beb54	-0.06831995
164	0x3dbaab48	0.091147006
165	0xbdeec9ed	-0.11659608
166	0xbc5c435d	-0.013443795
167	0x3c8992c3	0.016793614
168	0xbddb9114	-0.10721031
169	0xbd13fd78	-0.0361304
170	0xbd52adbd	-0.05143522
171	0x3db34f94	0.08755413
172	0x3ce52ce8	0.027975515
173	0xbd9719ce	-0.07377969
174	0xbdc3c097	-0.09558218
175	0x3ccd2b02	0.025044922
176	0x3ce5c2fc	0.028047077
177	0xbc68db75	-0.014212479
178	0x3dc49c30	0.09600103
179	0xbd20aad4	-0.039225414
180	0xbdca0913	-0.09865012
181	0x3d7826f9	0.060584042
182	0xbcf777a5	-0.030208418
183	0x3c895176	0.016762476
184	0xbdf0ac01	-0.11751557
185	0xbd9e3520	-0.077249765
186	0x3d368c64	0.04456748
187	0x3d9d4781	0.07679654
188	0x3d41b984	0.047296062
189	0xbd0f3c5d	-0.034969676
190	0xbd2dab17	-0.042399492
191	0xbd21bc46	-0.039486192
192	0xbbfa7607	-0.0076434645
193	0x3d79a978	0.060952634
194	0xbdb9166d	-0.090374805
195	0xbd920823	-0.07130458
196	0x3d8666f0	0.065626025
197	0xbdc61ab4	-0.09673062
198	0x3db93622	0.09043528
199	0x3d8d6645	0.06904272
200	0x3d87cf96	0.06631391
201	0xbd6432bd	-0.05571245
202	0xbdbd24bf	-0.092355244
203	0xbd9f42ab	-0.07776388
204	0x3db88fbd	0.09011791
205	0x3d9400c3	0.07226708
206	0xbdb38fc0	-0.087676525
207	0xbdd7e838	-0.10542339
208	0xbd8210c3	-0.06350853
209	0x3c5d076e	0.013490541
210	0xbc34dcda	-0.011038983
211	0x3ac50d9a	0.0015033961
212	0x3d71141f	0.05885708
213	0xbdb393da	-0.08768435
214	0xbcdd95c0	-0.027048945
215	0x3daf8e29	0.08572037
216	0xbc119f2b	-0.008888046
217	0xbd313553	-0.043263745
218	0x3cb847f6	0.022495251
219	0xbd832fb4	-0.06405583
220	0x3d94bc69	0.07262499
221	0xbda16b10	-0.07881749
222	0x3d213867	0.03936043
223	0xbcc46cdd	-0.023977691
224	0xbd22e517	-0.03976926
225	0xbdca4662	-0.09876706
226	0x3c3e622f	0.0116200885
227	0x3da779c4	0.08177522
228	0x3c090267	0.008362389
229	0xbdd04477	-0.10169309
230	0x3c82ccc9	0.01596679
231	0x3d49588a	0.049156703
232	0x3d95aafa	0.07308002
233	0x3d8c2401	0.06842805
234	0x3cc7968d	0.02436378
235	0x3db68a73	0.08913126
236	0xbca515c9	-0.02015199
237	0x3d0dde85	0.03463604
238	0x3d9e9260	0.077427626
239	0xbda75c70	-0.08171928
240	0x3cd44e79	0.025916325
241	0x3cee65f3	0.029101348
242	0x3da89c74	0.08232966
243	0xbdd8119f	-0.10550236
244	0xbd5f2e5e	-0.05448758
245	0x3d26ef20	0.04075539
246	0xbdba0f78	-0.09084982
247	0xbd12afa0	-0.03581202
248	0x3da4aeb7	0.08041137
249	0x3c54b7ac	0.012983244
250	0xbd7a396a	-0.06108991
251	0xbc82bbe1	-0.015958728
252	0x3d4bdae5	0.0497693
253	0x3be15155	0.0068761506
254	0x3d640c17	0.055675592
255	0xbdb20bfb	-0.08693691

bias f4 [100]
0	0xbdb76edd	-0.08956692
1	0x3d295a16	0.04134568
2	0xbbd5e45d	-0.006527467
3	0x3d8a5f52	0.06756462
4	0xbdc1a4b9	-0.094552465
5	0xbdb43503	-0.08799174
6	0x3cda0e35	0.026618103
7	0xbd9ae8ff	-0.07563972
8	0x3da8dffa	0.08245845
9	0xbd3e8878	-0.046516865
10	0x3cc525da	0.0240659
11	0x3b894ee5	0.004190313
12	0xbdd6b6e7	-0.104841046
13	0xbd77aaef	-0.06046575
14	0xbd918ff7	-0.07107537
15	0x3d7bd68f	0.061483916
16	0xbc6e1f09	-0.014533767
17	0xbd7b9965	-0.061425585
18	0x3d5b6d25	0.053570885
19	0xbdc2324a	-0.09482248
20	0x3db77dc3	0.08959534
21	0x3da50d07	0.080591254
22	0xbd9d7c73	-0.076897524
23	0xbcdf22b3	-0.027238226
24	0x3d499808	0.049217254
25	0x3dbdace6	0.092614934
26	0x3d8233b5	0.063575186
27	0x3b7d2172	0.0038624671
28	0xbc1ede68	-0.0096965805
29	0xbc937833	-0.018001651
30	0x3d829409	0.06375892
31	0x3dd6e2d1	0.104924805
32	0x3bfda9c2	0.007741184
33	0x3d8ccc6c	0.06874928
34	0x3d58b196	0.052903734
35	0x3d2c625d	0.042085994
36	0xbd1e3d5f	-0.038632747
37	0xbdd73862	-0.10508801
38	0xbd72e3ef	-0.059299406
39	0x3ca2110f	0.019783525
40	0x3cf5b403	0.029993063
41	0x3c93e92a	0.018055517
42	0xbdb4e50b	-0.08832749
43	0xbbdbdbf2	-0.006709569
44	0xbd9571dd	-0.07297108
45	0xbde512d6	-0.11185233
46	0xbdd2bc49	-0.10289819
47	0x3c04a741	0.008096517
48	0x3bb73305	0.005590799
49	0x3d0831fd	0.033250798
50	0x3d054cfb	0.032544117
51	0xbd0d1ea3	-0.034453046
52	0x3c5e9fa3	0.013587865
53	0x3d92cc7a	0.07167907
54	0x3d7ec9e7	0.062204268
55	0x3d86472d	0.065565445
56	0x3da1ac3e	0.07894181
57	0x3d9c514d	0.076326944
58	0x3d427cb3	0.047482204
59	0xbcf533cd	-0.029931927
60	0xbd5bbd64	-0.053647414
61	0x3c8a35b3	0.016871309
62	0x3dc2524d	0.09488354
63	0x3dbe15f0	0.09281528
64	0x3bc709d6	0.0060741706
65	0x3cdd7e92	0.027037892
66	0xbd19f57b	-0.037587624
67	0xbd9b6785	-0.07588104
68	0x3d742f75	0.05961557
69	0x3d9ee0e6	0.0775774
70	0x3ca2e99b	0.019886782
71	0xbd64d9fc	-0.05587195
72	0xbdcb21e3	-0.09918573
73	0x3c4afc20	0.012389213
74	0x3da0d295	0.07852665
75	0xbd66da38	-0.056360453
76	0xbca93115	-0.020653287
77	0xbd39017c	-0.04516743
78	0xbdb1cd9f	-0.08681797
79	0xbb179400	-0.0023128986
80	0xbd0ca0d4	-0.034333065
81	0x3d4999f7	0.049219098
82	0x3d9e30d8	0.0772416
83	0xbd92690a	-0.07148941
84	0xbd9dd47a	-0.07706542
85	0xbd0bb09c	-0.034103975
86	0xbd8fafe0	-0.07015967
87	0x3d0f8ca8	0.03504625
88	0x3d591d60	0.05300653
89	0x3d1ce289	0.03830198
90	0x3d574b3f	0.052561995
91	0x3d8f5704	0.06999019
92	0x3cf5a5be	0.029986259
93	0x3d2006e2	0.039069064
94	0xbc4f5864	-0.012655351
95	0xbd6a9c1a	-0.057277776
96	0xbd7a6c75	-0.06113859
97	0xbc651b1f	-0.013983517
98	0x3d25ba7b	0.040461045
99	0xbdb8468b	-0.0899783

weight f4 [73, 100]
0	0x3ce2666c	0.02763673
1	0xbcb20794	-0.02173213
2	0xbce36c35	-0.027761558
3	0x3ce8c3d0	0.028413683
4	0x3cb6904b	0.022285601
5	0x3cde98eb	0.027172526
6	0x3c696092	0.014244216
7	0xbd1bf7e7	-0.038078215
8	0xbb606b33	-0.0034243583
9	0x3cd42cb3	0.02590022
10	0xbdc0badb	-0.0941064
11	0xbd9229f8	-0.07136911
12	0xbdc22c8f	-0.09481155
13	0x3c916569	0.017748551
14	0x3d7df236	0.06199857
15	0xbd69a86f	-0.057045396
16	0xbd6a33f0	-0.057178438
17	0x3da321a5	0.079654016
18	0xbcab6163	-0.020920461
19	0xbd82eb21	-0.063925035
20	0x3d48f3c0	0.049060583
21	0x3db3019f	0.087405436
22	0xbcc91def	-0.024550406
23	0xbc712b80	-0.014719844
24	0x3d2bae77	0.04191443
25	0x3d2c6a5c	0.04209362
26	0xbd7e10b7	-0.06202766
27	0x3d8089f2	0.06276311
28	0x3d98c28b	0.07458981
29	0xbdaccab7	-0.08437102
30	0xbc1ee779	-0.009698742
31	0xbcd52b23	-0.026021546
32	0x3bd2978b	0.0064267567
33	0x3c5ad29f	0.01335588
34	0x3c55d541	0.013051332
35	0xbd0dc177	-0.03460833
36	0xbd425324	-0.04744257
37	0xba669927	-0.0008796625
38	0x3dc0b5f8	0.09409708
39	0x3d963280	0.07333851
40	0xbe5fdd0a	-0.21861663
41	0xbd339010	-0.04383856
42	0x3b3d4d94	0.0028885351
43	0x3dbcdf44	0.09222272
44	0xbd724aad	-0.059153248
45	0xbd70f110	-0.058823645
46	0xbd810f76	-0.06301777
47	0xbdc30214	-0.09521881
48	0xbda8bf74	-0.08239642
49	0xbdbce852	-0.09223999
50	0xbcea5605	-0.02860547
51	0xbc9334d3	-0.017969524
52	0xbdbcec82	-0.09224798
53	0xbd99f5dc	-0.07517597
54	0x3a843ad3	0.0010088332
55	0x3da58fdd	0.0808408
56	0x3c135e12	0.008994596
57	0xbc8b9405	-0.017038355
58	0x3d29c20e	0.04144483
59	0x3d5379bd	0.05162977
60	0xbdb07e09	-0.08617789
61	0xbdb08878	-0.08619779
62	0x3d6e3478	0.058155507
63	0xbcd19032	-0.025581453
64	0xbdbf2e7c	-0.09335038
65	0x3d6d9d93	0.058011603
66	0x3dc64af7	0.09682267
67	0xbdf5f6bd	-0.12009952
68	0x3d94941f	0.07254814
69	0xbd22d04a	-0.03974942
70	0xbd7a4a0e	-0.06110578
71	0x3c9ec3ec	0.019380532
72	0x3d8ff50e	0.07029162
73	0xbc9ed400	-0.019388199
74	0x3cdb9418	0.026804015
75	0xbd8f26cc	-0.06989822
76	0xbd8b6f58	-0.068083465
77	0x3ca83d89	0.020537155
78	0xbd469b24	-0.048487797
79	0x3c39f0b3	0.011348891
80	0xbd9f85c8	-0.077891886
81	0x3d9cf9b1	0.07664812
82	0x3ca4babd	0.020108575
83	0xbd94a16f	-0.072573535
84	0xbd25ae37	-0.040449347
85	0xbe10a699	-0.14126052
86	0xbdba58a6	-0.090989396
87	0x3cc85724	0.024455614
88	0x3d9494aa	0.07254918
89	0x3da69738	0.081343114
90	0xbc99a0b4	-0.018753387
91	0xbd863d75	-0.06554691
92	0x3da1f95c	0.0790889
93	0xbdc58ad0	-0.09645617
94	0xbe04e687	-0.12978564
95	0xbdabacfe	-0.08382605
96	0xbdaa58a6	-0.083176896
97	0xbd972b42	-0.07381298
98	0x3d7f8991	0.062387053
99	0x3b82bce6	0.0039898036
100	0xbdc78c9d	-0.09743617
101	0xbd87c0b6	-0.066285536
102	0x3d960213	0.073246144
103	0xbd88fb4a	-0.066885546
104	0xbd95cbc7	-0.07314258
105	0x3aab1b16	0.0013054337
106	0xbdcff8f4	-0.10154906
107	0x3d4e5726	0.05037608
108	0x3d22708f	0.039658125
109	0x3c9ba8ed	0.019001449
110	0xbd80e5c1	-0.06293822
111	0x3da16464	0.07880476
112	0x3cd60ff7	0.02613066
113	0xbcd856ec	-0.026408635
114	0xbd7265df	-0.059179183
115	0xbcf4f195	-0.029900352
116	0x3da34321	0.07971788
117	0xbd0b5ae7	-0.034022238
118	0x3d5738c9	0.05254439
119	0xbd90e698	-0.07075232
120	0xbd6076d6	-0.05480083
121	0xbd8082ed	-0.06274972
122	0x3d7b4266	0.06134262
123	0xbd018193	-0.031617712
124	0xbdb23153	-0.08700814
125	0xbc0293f6	-0.007969847
126	0xbd9cb408	-0.07651526
127	0x3d776945	0.060403127
128	0x3d905ce6	0.07048969
129	0x3ccc47cd	0.024936581
130	0xbda23206	-0.079196975
131	0xbddf20fa	-0.10894962
132	0x3cf7bd4e	0.030241635
133	0x3c96add9	0.018393444
134	0x3cc36578	0.023852095
135	0xbd7cf7fd	-0.061759938
136	0xbdd25663	-0.10270383
137	0x3daa26cf	0.083081834
138	0x3d4bcc59	0.049755428
139	0xbdd088ea	-0.10182364
140	0xbd973d9a	-0.073847964
141	0x3d3ddd4a	0.046353616
142	0xbc644484	-0.013932351
143	0x3dab3b21	0.08360887
144	0x3d9b42a6	0.075810716
145	0x3d99e212	0.075138226
146	0xbd2cba8a	-0.042170085
147	0x3c930859	0.017948316
148	0xbd2fdb09	-0.042933498
149	0xbc58f2cd	-0.013241482
150	0xbdcfe343	-0.101507686
151	0xbdca2495	-0.09870259
152	0xbc08e7c1	-0.008356036
153	0x3d530b36	0.051524363
154	0xbdc98467	-0.09839707
155	0x3d8140d4	0.06311193
156	0xbdb419f3	-0.08794012
157	0x3d7ff86a	0.062492765
158	0xbd1a7483	-0.03770877
159	0xbcba075a	-0.022708584
160	0xbca28d0e	-0.01984265
161	0x3c17634d	0.009239984
162	0x3da0114e	0.078158006
163	0x3c1b0cd7	0.0094635105
164	0x3dafad7b	0.08578011
165	0xbce7a863	-0.028278535
166	0x3d591b3d	0.053004492
167	0x3d2efc32	0.04272098
168	0xbd83cf6d	-0.06436048
169	0x3d8a728d	0.0676013
170	0xbd3b745f	-0.045765277
171	0xbda95726	-0.08268575
172	0x3d2f4be7	0.042796995
173	0x3d778150	0.060426056
174	0x3da8a18c	0.082339376
175	0x3a8bd95c	0.0010669637
176	0xbda29eb0	-0.079404235
177	0x3d93ff96	0.072264835
178	0xbd1430d2	-0.03617937
179	0x3d6452b0	0.05574292
180	0xbd2348df	-0.039864417
181	0xbb8d90e9	-0.004320253
182	0x3d49498f	0.049142417
183	0xbd210d1a	-0.039319135
184	0x3d4009c8	0.046884328
185	0xbd4421c8	-0.04788378
186	0x3cb4935c	0.022042923
187	0x3d61bfc4	0.055114523
188	0x3d90e094	0.07074085
189	0xbc6aa173	-0.014320719
190	0x3cc5c0e8	0.024139836
191	0x3ba1dfe0	0.004940018
192	0xbc3fbc4b	-0.011702607
193	0x3c3bd534	0.011464406
194	0xbd297a79	-0.041376565
195	0x3ca1f046	0.019767892
196	0x3d348123	0.044068467
197	0x3d195e4e	0.03744345
198	0xbd7a1985	-0.061059494
199	0x3d9b8d14	0.07595268
200	0x3d27eeb5	0.040999133
201	0xbdc4cfe9	-0.09609968
202	0x3d6d032c	0.057864353
203	0x3c1ca6e8	0.009561278
204	0xbd7b2330	-0.061312854
205	0x3da5bdd2	0.08092846
206	0xbdbac3f7	-0.091194086
207	0xbdaca172	-0.08429231
208	0xbdc884b8	-0.09790939
209	0x3d6f19a1	0.05837405
210	0xbdcca6c9	-0.09992749
211	0xbd2465a9	-0.040136013
212	0x3d9c8dee	0.076442584
213	0x3d8594f8	0.06522554
214	0xbaa47ca1	-0.0012549349
215	0x3dcff83e	0.1015477
216	0xbd82b2c3	-0.06381752
217	0xbd7755c4	-0.060384527
218	0x3bc0e3bf	0.0058865245
219	0xbdcef15c	-0.101046294
220	0xbbb98053	-0.0056610494
221	0xbdc2f2e6	-0.095189855
222	0x3d61c853	0.055122685
223	0x3ce1dd07	0.027571214
224	0xbc6a79cb	-0.014311264
225	0xbb81f700	-0.0039662123
226	0xbcd8879a	-0.026431847
227	0x3d1a215a	0.037629463
228	0xbd88cfb7	-0.066802435
229	0xbd952378	-0.07282156
230	0xbdc0026b	-0.09375461
231	0xbda608ba	-0.08107133
232	0x3c4d34dd	0.012524811
233	0x3bf9e5a1	0.007626251
234	0x3bc26427	0.0059323492
235	0x3d76180a	0.06008152
236	0xbd27eae5	-0.040995497
237	0xbd5124ec	-0.051060602
238	0xbc808d72	-0.015692446
239	0xbd5748ca	-0.05255965
240	0x3d95ce36	0.07314722
241	0x3da37a9a	0.07982369
242	0xbdc9df87	-0.098570876
243	0xbb038ce3	-0.0020072989
244	0xbd59503a	-0.053055026
245	0x3d8ef7a9	0.06980831
246	0x3d6d1ff4	0.0578918
247	0x3c3e711a	0.011623645
248	0x3d53532b	0.051592987
249	0x3d0a3c55	0.033748943
250	0x3d3a6c14	0.045513228
251	0x3da74c52	0.08168854
252	0xbd85c99d	-0.06532595
253	0xbdc245d9	-0.09485979
254	0x3d2ea849	0.042640958
255	0x3cb83af6	0.022489052

bias f4 [73]
0	0xbd0f2d7b	-0.034955483
1	0xbd1e297d	-0.038613785
2	0x3d953bf2	0.07286824
3	0x3d50f465	0.051014323
4	0xbcfa5d2f	-0.030562012
5	0xbd1feb2d	-0.03904264
6	0x3d9a3565	0.075297154
7	0x3dcb1870	0.099167705
8	0x3c27eaf2	0.010248886
9	0x3a2be4a9	0.00065572053
10	0xbc23eadf	-0.010004728
11	0xbb809c57	-0.003924887
12	0xbccfbb93	-0.025357997
13	0xbcd680e3	-0.026184505
14	0xbd6798d6	-0.05654224
15	0xbcf08a73	-0.029362893
16	0x3db8829d	0.090092875
17	0x38808f66	6.130226e-05
18	0x3d40ffe8	0.04711905
19	0xbd462afd	-0.04838084
20	0x3dcf01c2	0.10107757
21	0xbd74aba3	-0.059733998
22	0x3b3f8bf2	0.00292277
23	0xbbb934cd	-0.0056520463
24	0x3c87fcf2	0.016600106
25	0xbd99c2df	-0.07507872
26	0x3d853be0	0.06505561
27	0x3d9b2dff	0.075771324
28	0xbd8491b3	-0.064731024
29	0x3c74cab2	0.014940904
30	0xbdae817c	-0.08520791
31	0xbd3a6246	-0.045503877
32	0x3daf8332	0.085699454
33	0xbdc85100	-0.097810745
34	0xbb609ca0	-0.0034273043
35	0xbd610291	-0.05493409
36	0x3d0f172b	0.034934204
37	0xbdde5dc8	-0.10857731
38	0x3d1eae07	0.038740184
39	0x3c97b663	0.018519586
40	0xbd5213d6	-0.05128845
41	0xbd784677	-0.060614076
42	0xbcba140a	-0.022714633
43	0xbc5d5164	-0.013508175
44	0x3d1809d8	0.037118763
45	0x3d63ecf6	0.055645905
46	0xbda006bf	-0.07813787
47	0xbb6bb767	-0.003596747
48	0xbc932af8	-0.017964825
49	0x3caf5635	0.021403411
50	0xbc6e63fd	-0.014550206
51	0x3da7fe06	0.08202748
52	0xbd493a26	-0.04912772
53	0x3d4690ad	0.048477817
54	0x3cd47f63	0.025939649
55	0x3dd704d2	0.10498966
56	0x3caf7a64	0.021420665
57	0xbd9d8728	-0.07691795
58	0x3d5c1b5c	0.05373703
59	0xbb4aec78	-0.00309637
60	0x3ccf36c8	0.025294676
61	0x3d6e9bce	0.058254056
62	0x3ceac9e8	0.02866073
63	0xbd691800	-0.056907654
64	0xbdacb2a3	-0.0843251
65	0x3d6ee5c5	0.058324594
66	0xbd3a4f3e	-0.045485727
67	0xbd1b2f94	-0.03788717
68	0xbd8ca68f	-0.06867706
69	0xbdb08648	-0.08619362
70	0xbd5aa972	-0.053384252
71	0xbd8c8e8b	-0.068631254
72	0xbdc8455b	-0.097788535
