100_2215.pth (torch, 205447 bytes, 10 tensors)

weight f4 [50, 504]
00000000: 8dbe 5ebc ceff f1bc 615f 0b3d 317a a6bc
00000010: a1a0 e73b bbee 0dbd 1dbd b4bc 7950 22bd
00000020: 80f7 82bc fd25 1dbd ddee fb3c 0869 343d
00000030: 8513 e13c 2d61 30bd a3b2 30bc 6666 1bbd
00000040: 8e63 32bd b227 eb3c 358c fabb 4111 233d
00000050: ff32 4b3c 24c3 12bd 78bd 52bc 3c86 0c3c
00000060: fcfb 2d3d 2576 20bc 5fe9 263b 89be 4dbc
00000070: 8a1f 9c3c d5b8 1dbd a49b 2cbc 2ea9 183d
00000080: 1416 7f3c 7d58 093c 3172 20bd 98e7 2b3c
00000090: d4d6 2f3d 8144 0e3d d83b 833c 8eff 26bb
000000a0: 9241 293d 7f5f f3bc 2474 a03b 6658 90bc
000000b0: 7759 a33c dc62 1a3d 4200 793c a83f 343c
000000c0: bb1e 1e3d d1cf d539 4d16 d73c e076 2dbd
000000d0: a2bb 763c 4c76 903c 7029 fcbc 7f29 893b
000000e0: d7a8 d1bc 1d8f 233d 19f2 01bc e8a7 223d
000000f0: 3220 c33b ef4f 1bbd 01f9 25bd b2d2 db3c
00000100: 0659 2c3d de46 323b f2db 2ebb 3a6b 233d
00000110: 61bf d93c 1238 843c 7a2b 2cbc 9ec9 843c
00000120: 5641 21bd 83d3 2cbd 2f7f 133c 7ad8 99bc
00000130: b79c 08bc 55c2 d93b e59b c33c 08c5 f9bc
00000140: ced1 99bc 1163 5d39 d713 40bc 4bc1 2f3d
00000150: 75fc bdbc 8466 9aba 224b 09bd c390 1cbd
00000160: df79 2e3d 4d2e b2bc bb04 b23c c38f ff3c
00000170: 44f2 c03c 799a 1abd cb1c b5bb ec64 2ebd
00000180: 3352 303b c00a c3bc e248 f8bc 9fe0 133c
00000190: 0c8a 993c f546 17bc 57b3 773c 48a7 0d3d
000001a0: 1635 d2bc 8ae4 5cbc 3ef0 18bd 9d01 233c
000001b0: f622 0abd 53c0 2f3d 4788 efbc d879 293d
000001c0: b79e 343d dd30 fcbc cee0 073d 8dfc 13bd
000001d0: 8016 15bd 3133 f0bc 0d5e d03c 2181 303d
000001e0: 7094 8a3a 1c9d fd3b c5ce 243d 7617 413c
000001f0: 6dfc 223c 7692 1e3d 704f 173d c903 dd3b
00000200: b553 9a3c 0317 173d 0fe9 1e3d 31a3 23bd
00000210: ded5 85bb b299 ecbc aa9c e63c 93ab bc3c
00000220: d437 ac3c f108 363d 5b9f 313d e2d4 f7bc
00000230: 0ba5 24bd b5d0 1abd a0d2 e53b a9f2 0bbc
00000240: 80d9 2abd da0b d6bc 4e37 16bd f536 183d
00000250: 18c9 1fbd f218 37bc 542a d63b a918 db3c
00000260: e364 7ebc a0a9 ed3c c3fc f03b 9627 c13c
00000270: 8a18 0a3c 8a5a 24bc 9fff 413c 2d27 f0bc
00000280: d4cd d7bc f2d7 ddba dda2 98bc 923c 0d3d
00000290: e217 543c c9d9 46bb 6143 0c3d e74f b03c
000002a0: d4e4 2bbd d2ec cfbc fabb 33bd 7b16 87bc
000002b0: 7849 063d 0eec c03c 73f0 2dbd 9ed2 89bc
000002c0: ebc8 dabb aab8 c9bc eef1 43bc e3d9 273c
000002d0: a71a 5bbb f3df ffba 1381 77bc 56b2 06bd
000002e0: 367c 1c3d 3396 8b3c b854 2b3d 155d 1ebd
000002f0: 32db fb3c f59b c6ba a812 32bd 157d 243c
00000300: dcc7 f939 e1d6 163d 2823 d13b 6def 9c3c
00000310: fb95 afbc 4152 89bb 61be 17bd dd69 d33c
00000320: ad61 f6bc 9922 d13c 1f2e 2bbd 6e3a 113d
00000330: d8b7 be3c 2359 323d 6c13 933c dc7c 353d
00000340: 6291 15bd 04de e9bc 37d5 1cbd 44c0 113d
00000350: 9e1f 05bd af40 d4bc fb86 f13c 2d29 a53b
00000360: 207f 22bb 9e2d bfbc 5d13 aebb df5a edbb
00000370: d9bd 09bd 1f59 e5bc e581 2e3d e430 1b3d
00000380: 057d 053d 261f 10bd 0a74 34bc 4536 c3bc
00000390: 7c4f 26bd 8ee1 ec3c 5987 043d 84d8 123d
000003a0: 5c76 1cbd 3c95 30bc 586a 2d3d 7ff0 a8bc
000003b0: 7b44 92bc fb42 b93c 65ec 163d d52a 37bc
000003c0: fc0b d23b 2e96 bf3a 40fc 5d3c 1f41 c23b
000003d0: 5e67 21bc ab28 b2bc 0d66 f5bc b693 2cbc
000003e0: e704 f2bc 168a 043c 1ecf 14bd 9bdb d3bc
000003f0: 7f4c 953a 8b76 1abd f462 ab3c 282a b8bc
-0.0135952355 -0.029540922 0.034026507 -0.020321937 0.007068709 -0.0346515 -0.022062832 -0.039627526
-0.015987158 -0.038366307 0.030753547 0.044045478 0.027475128 -0.043061424 -0.010784778 -0.03793945
-0.043551974 0.028705452 -0.0076461085 0.039811376 0.012402295 -0.03583063 -0.012862556 0.008576926
0.04247664 -0.009793793 0.002546869 -0.012557634 0.019058008 -0.038506348 -0.0105351545 0.037270717
0.015569229 0.008382914 -0.0391714 0.010492228 0.042929485 0.0347333 0.016019747 -0.0025481912
0.0413223 -0.029708622 0.0048966575 -0.017620277 0.019940121 0.037691936 0.015197815 0.011001505
0.038603526 0.0004078136 0.026255751 -0.042349696 0.015059384 0.017634533 -0.030781478 0.004185855
-0.025593204 0.039931405 -0.007931256 0.03971091 0.0059547657 -0.037918027 -0.04052067 0.026833866
0.042077087 0.0027202885 -0.002668139 0.03989718 0.026580514 0.016140018 -0.0105084125 0.01620942
-0.03936895 -0.0421939 0.009002491 -0.018779982 -0.008338145 0.0066454806 0.023878047 -0.03048946
-0.0187768 0.00021113108 -0.01172348 0.042908948 -0.02319167 -0.001177982 -0.033518918 -0.038223993
0.042596694 -0.021750594 0.021730771 0.03119648 0.023553021 -0.037744973 -0.005527114 -0.042576715
0.0026904463 -0.023808837 -0.03030819 0.009025722 0.018742584 -0.009233226 0.015118442 0.03458336
-0.025660079 -0.013482222 -0.037338488 0.009949115 -0.033724748 0.042908024 -0.029239787 0.041375965
0.044096675 -0.030785019 0.033173375 -0.036129523 -0.03639841 -0.029321285 0.025435472 0.043091897
0.0010572802 0.007739676 0.040236253 0.011785379 0.009947878 0.038713895 0.036940992 0.006744836
0.018838743 0.03688718 0.03879648 -0.039950553 -0.004084333 -0.028881881 0.028150875 0.023031032
0.021022715 0.04444212 0.043364864 -0.030252878 -0.04019646 -0.037796695 0.007013634 -0.008541741
-0.04171133 -0.026128698 -0.036673836 0.037161786 -0.039010137 -0.011175381 0.0065358076 0.026745157
-0.015526983 0.029011548 0.0073543503 0.023578446 0.008428702 -0.010031352 0.01184073 -0.029315555
-0.026343264 -0.0016925319 -0.018632347 0.034481592 0.012945147 -0.0030342212 0.034243945 0.021522475
-0.041966274 -0.02538148 -0.04388044 -0.016490212 0.03278491 0.02355006 -0.04246564 -0.016824063
-0.0066767833 -0.024624187 -0.011959536 0.010244819 -0.0033432634 -0.0019521698 -0.015106457 -0.03288492
0.038204394 0.017039394 0.04182884 -0.03866299 0.030744169 -0.001515268 -0.043474823 0.0100395875
0.00047641888 0.03682602 0.006382365 0.019157136 -0.021433821 -0.0041907136 -0.037046794 0.025807315
-0.030075872 0.025529193 -0.04179203 0.035456114 0.023281023 0.04354204 0.017953597 0.04430853
-0.0365156 -0.028548248 -0.038289275 0.03558375 -0.032500856 -0.02590975 0.029483309 0.005040309
-0.002479501 -0.023337182 -0.005312367 -0.0072434987 -0.03362832 -0.027996598 0.042604346 0.037888423
0.03258993 -0.035185955 -0.011013994 -0.023829589 -0.040603146 0.028916147 0.03235564 0.035851017
-0.038198814 -0.010777768 0.042337745 -0.02062249 -0.01785492 0.022614947 0.036846537 -0.011179646
0.00641012 0.0014616901 0.013548911 0.005928173 -0.009851305 -0.021747908 -0.029955888 -0.010533264
-0.029543353 0.008089563 -0.036330335 -0.025861552 0.0011390595 -0.037710708 0.020921208 -0.02248104

bias f4 [50]
00000000: 8520 343d bb77 363b ab9a f1bc 2186 1f3d
00000010: 863c 053d 471a 87bc 3fb2 58bc 4a15 09bd
00000020: 906d 1ebc 50e6 233d 6fce 8abc ea12 2cbd
00000030: 0852 2bbc fed5 f4bc 52a9 f5bc 2cb8 2539
00000040: 02c6 903c 8cb6 29bd 4562 393c ce25 b3bc
00000050: 288f 22bd 47a7 ae3c aaf1 0d3d 2570 343c
00000060: 87d7 8e3c a09d a9bc 23e5 123c 83cb 033d
00000070: cb3c cebc 2d4b 253c ae8a ee3b f8ae 87bc
00000080: 59aa 313d 538d d7bc 431a cb3b 4f38 b13b
00000090: ab00 1f3d b2ee aabc eefb 94bc b9d2 3f39
000000a0: b636 7ebb a4c0 093c 1330 3abd 89c9 39bd
000000b0: c04b 75bc ab1e 113d 7c65 0fbc 0c9e 4c3a
000000c0: f556 04bd c4a2 ceba
0.043976326 0.002784236 -0.029492697 0.038946275 0.032528423 -0.016492022 -0.013226091 -0.03346757
-0.009669676 0.040014565 -0.016944138 -0.042010225 -0.0104565695 -0.029887196 -0.029987965 0.00015804236
0.017672542 -0.041433856 0.011314933 -0.021868613 -0.039687306 0.021319998 0.034654297 0.011013065
0.017436756 -0.020705044 0.008965763 0.032176506 -0.025175473 0.010088724 0.0072797155 -0.016562924
0.043375347 -0.026312506 0.006198199 0.005408324 0.038818996 -0.020865772 -0.018186536 0.0001829368
-0.0038789934 0.0084077455 -0.045456003 -0.045358215 -0.0149716735 0.035429638 -0.008752223 0.0007805533
-0.03230949 -0.0015765061

weight f4 [50, 50]
00000000: 18ce 10be f81e 943d 75ce 23bd 39ab 06be
00000010: 5cad c3bc a636 43bd 60f0 293d ac99 1abd
00000020: bf1b 22bc adf7 de3d 9685 113c 7163 e43d
00000030: ee5b 4d3d 8da9 013e 5723 f3bb f699 a7bd
00000040: 6b57 f63d b8b5 15bd 94c3 2d3d b5b3 35bd
00000050: aba2 e53c 16db 93bc 5ab0 b33d 5a28 1e3d
00000060: 7b86 a23d a9bf d8bd 7da3 9fbd d3d4 ff3d
00000070: a148 e13d 6b4b 29bc c014 aabd c278 4fbd
00000080: 6fbd b93d 23e3 a13d 5133 ab3d a772 fa3d
00000090: 76b5 013e d2fd 063d eff8 b53d 6a0e 55bd
000000a0: 4c27 59bd 009f 97bc e90d cfbd 0b94 a0bd
000000b0: 424b 403d 8eca bcbd 6a44 973d c4f3 a6bd
000000c0: 7c57 083e f65b c73d 1221 1c3c 10fe ac3c
000000d0: fdab 213d bf7d e8bd bed0 9bbb a494 c5bd
000000e0: c092 d0bd b03f 92bd 0ea2 febd dbda f33c
000000f0: b43c d93d a62e b2bd 917c ecbd f8f0 a6bd
00000100: 504d ae3d d6ed 81bd 7757 02be f5ca 0bbc
00000110: 21be 05be c7a4 01be f5cb ef3d b924 5b3d
00000120: 4812 6a3d 32d7 87bc b01e e4bd 05fd 85bd
00000130: 3f65 243d b410 2e3d 5291 a03d c355 0fbe
00000140: f81f 66bc a827 68bd c3f8 423c 170d 01bc
00000150: 4548 09bd cc64 97bd 2a0e c9bb 7e2b bcbd
00000160: f9c1 e83d 750a c2bd bcff e5bd 9469 03be
00000170: c65e 61bd b335 2bbd a07f d83d c332 b83c
00000180: a659 fc3d b24d b73d c7c5 cc3d 0228 40bb
00000190: fc42 cabd 94c0 0cbe ed5a 973d 0393 053d
000001a0: f1d8 943d c333 c3bd b420 36bc 545c cc3d
000001b0: 8654 83bc bddb 6bbc 4deb e83c 3687 3ebc
000001c0: f77a 4b3d 6c4a 05be 591c f3bd a375 c03d
000001d0: 6909 a5bd d728 d53d fef8 973d 44d1 cebd
000001e0: 57be c63d 0839 143c df2d ae3c 2af7 60bd
000001f0: 8c15 e1bd dc89 09be 9887 ca3a 0e7c 383d
00000200: 800a 183c 8805 c9bd 652c 983d 3aa9 ee3c
00000210: 7ba6 2b3d 92c9 d43d 5981 0dbe 0605 3abd
00000220: bf49 8abd bc45 3fbd 59d2 71bd f5f8 093d
00000230: a904 0ebe 9e65 083e 75e5 a73d 1c23 ac3d
00000240: 60db 953d bf53 92bd 7d3f 7ebd 1580 f93d
00000250: 2661 0a3e 634a 07bc 0d43 a33d c761 7a3d
00000260: 3e70 663d 2382 59bd 7c9d 53bd 3116 8f3d
00000270: 89eb 05bd 1d48 61bd c7a9 973d d737 073e
00000280: 4dc9 08be e35a 49bd 7ab0 efbd 3588 8e3d
00000290: 9668 fb3c c33f 263d f7be 8abc 0a94 90bd
000002a0: 6eb7 02be b1c9 bd3d 0943 213d 2efa e43d
000002b0: ec95 babd bb0b c13d 6422 a63d 9c90 7abd
000002c0: c9d3 0b3d c434 a4bd 7391 dcbd a914 c23c
000002d0: dd3b 953d bae2 08be b770 abbd 1efb f73c
000002e0: 4f44 f53c 059f 893d db67 fb3d eaa5 dc3d
000002f0: 935d 353d 9d34 7d3d b02f 633d acad 15bd
00000300: 8b8e e3bd 32bc 883d c549 a33d 4c2a 04be
00000310: 0949 233d 5c8a 69bd 9794 73bd 0824 4c3d
00000320: 649f d73d 300d 05be 9d4f 10be 25e0 c9bd
00000330: 7e39 df3d e275 cdbd c404 98bd 83bc 0f3e
00000340: d5ee aebd e287 d2bd 73ac 5f3d 2470 15bd
00000350: 9463 f1bd 5a15 a8bd d5a2 d7bd 7a58 633c
00000360: 335a 83bd cad3 38bd 1244 00be fc8d 413d
00000370: a612 7dbd fb3b a33d c56f 253d 2272 d03c
00000380: 120d 05be 3db4 babd 4274 bd3d e1db 023e
00000390: 8fe5 053e a7df cf3d b4dc 8d3d ad42 c3bc
000003a0: 6664 e4bb 1172 9d3d 3e06 21bd e3c7 42bc
000003b0: 019d 43bd 62e2 c2bd 5a78 9e3d 7749 abbd
000003c0: 5c52 463c 25f8 f23d c1e9 01be 313e 85bd
000003d0: 8330 d5bd d11c a73d 6e69 f53d 8955 b43d
000003e0: fee3 3f3d e26d adbd b45e bfbd 4012 203d
000003f0: 2f5e e7bd 47ec f13a 4f16 ea3c 3792 803d
-0.14141119 0.07232469 -0.039991815 -0.13151254 -0.023886375 -0.04765954 0.041489005 -0.03774421
-0.0098943105 0.10887084 0.008881947 0.111517794 0.0501365 0.12662335 -0.0074199843 -0.081836626
0.120283924 -0.036550254 0.042422846 -0.044360835 0.028031668 -0.018048804 0.08773871 0.0386127
0.07935806 -0.10583431 -0.07794855 0.12491765 0.11000181 -0.010332922 -0.08304739 -0.050652273
0.09069335 0.07904651 0.08359397 0.122288994 0.12666878 0.032956906 0.08885371 -0.0520157
-0.053015992 -0.018508434 -0.10110075 -0.07840737 0.04694677 -0.09218322 0.07386096 -0.08151963
0.13314623 0.09734337 0.009529369 0.02111724 0.03947066 -0.11352109 -0.0047551086 -0.096474916
-0.1018424 -0.07141054 -0.12433253 0.029767444 0.10607281 -0.08700304 -0.11547197 -0.0815143
0.0851084 -0.06344192 -0.12728678 -0.008532275 -0.1306081 -0.12660514 0.117088236 0.05350182
0.05714634 -0.016582105 -0.11138666 -0.065424 0.04013562 0.042496398 0.07840218 -0.13997559
-0.014045708 -0.056678444 0.01190013 -0.007876656 -0.033516187 -0.07392272 -0.0061357217 -0.09187983
0.11365122 -0.09474651 -0.11230418 -0.12833244 -0.055022024 -0.04179926 0.105712175 0.022485143
0.123217866 0.08950366 0.099986605 -0.0029320722 -0.098760575 -0.13745338 0.073903896 0.032610904
0.07267941 -0.09531357 -0.0111161955 0.09978548 -0.016031515 -0.014395651 0.028432513 -0.0116289165
0.049677815 -0.13016671 -0.11870641 0.093974374 -0.080584355 0.1040818 0.07420538 -0.10098508
0.09704273 0.0090468 0.021262107 -0.054923214 -0.10990438 -0.13431495 0.0015451787 0.045040183
0.009279847 -0.09815508 0.074303426 0.029133428 0.041906815 0.10390009 -0.13818873 -0.045414947
-0.06752347 -0.046697363 -0.059038494 0.03368469 -0.13868965 0.13320014 0.08198062 0.08405134
0.07317233 -0.071448795 -0.062072266 0.12182633 0.13513622 -0.008257481 0.07971773 0.061128404
0.056259386 -0.053102624 -0.05166386 0.069866545 -0.032695327 -0.055000413 0.07405429 0.13204895
-0.1335804 -0.049158942 -0.11703582 0.06959573 0.030689519 0.04058815 -0.016936762 -0.07059486
-0.12765285 0.09266985 0.03937057 0.111805305 -0.091106266 0.094260655 0.08112028 -0.061173066
0.03413752 -0.08017877 -0.1076993 0.023691492 0.07286809 -0.1336774 -0.08371108 0.03027111
0.029939799 0.06719784 0.12275668 0.10773833 0.044278692 0.061817754 0.0554654 -0.03654258
-0.11111172 0.066765204 0.07973055 -0.1290676 0.039864574 -0.057016715 -0.05946788 0.04983905
0.10528448 -0.12993312 -0.1409287 -0.09857205 0.10899638 -0.1003225 -0.07422784 0.14036755
-0.08541647 -0.10279824 0.05460782 -0.0364839 -0.11786571 -0.082071975 -0.105291046 0.013876075
-0.064136885 -0.045123853 -0.12525967 0.047254547 -0.061785363 0.07970425 0.040389795 0.025445048
-0.12993267 -0.09116409 0.0925069 0.1277919 0.13075851 0.1015008 0.069268614 -0.023835504
-0.0069699762 0.07687772 -0.039312594 -0.011888477 -0.047757152 -0.09515835 0.07737799 -0.08363622
0.012104597 0.11863736 -0.12686826 -0.06506003 -0.104096435 0.08159793 0.11983 0.08805377
0.04684829 -0.08468224 -0.09344235 0.039079905 -0.11297261 0.0018457257 0.02857509 0.06277888

bias f4 [50]
00000000: 2d97 a73d 650e 03be 7bd3 bdbd 97a6 93bd
00000010: 904d d13c cafc bf3c 7f17 0ebe 77e8 6a3d
00000020: 76d0 24bd 61d1 8ebb bef4 14bd 8916 d1bc
00000030: c503 2abd 9547 d7bc e182 ccbc ddc2 e43d
00000040: a6e3 5b3c c9bc 7d3d b2d9 c5bd f889 8a3d
00000050: f992 d73d 5a29 65bd e418 efbd ca3a 473d
00000060: 1862 d5bd 465c a53d df1f c0bd dca2 bfbd
00000070: c9e8 8fbd b7ca 88ba 0dd7 8f3d 4c29 583c
00000080: 4c9e 2b3d b8ec 133e b652 e5bd dbdd ac3d
00000090: ef57 9fbc 29f7 e5bd f866 0b3e d583 e83b
000000a0: a3b0 6c3d 9d42 b13d 8a19 9fbd 9dff bf3d
000000b0: 3a13 d43d 0a90 98bd fcfb 8cbb 8ae3 9b3d
000000c0: f893 84bc ae31 8c3d
0.08183131 -0.1279846 -0.09268852 -0.07209509 0.02554968 0.023435969 -0.1387615 0.057350602
-0.040237866 -0.004358456 -0.036366217 -0.02552344 -0.0415075 -0.02627925 -0.024964752 0.1116998
0.013420975 0.061947618 -0.09660663 0.06764597 0.1052608 -0.05594764 -0.116746694 0.04864005
-0.104191005 0.080742404 -0.09381079 -0.09357235 -0.07026822 -0.001043639 0.070234396 0.01319344
0.04189901 0.1444577 -0.111974165 0.08440753 -0.01945111 -0.11228783 0.13613498 0.0070957937
0.05778564 0.086552836 -0.07768543 0.09374926 0.1035523 -0.07449348 -0.0043025 0.07611759
-0.016183838 0.06845413

weight f4 [100, 50]
00000000: 8f25 51bd c897 0bbd 45bb 04bd a440 913c
00000010: cedb c9bd 83b8 d53c ce18 a63d 64e6 1abd
00000020: 4c48 883c b6b8 3bbc dc99 6d3d 572e 003e
00000030: a894 85bd d3b5 7d3d f8c7 debc 2537 cfbd
00000040: fbab c53d aeda 133d d832 0abe ccc5 003d
00000050: 0007 0bbd 571f 023e 503a bfbc 9dd1 a5bd
00000060: 5c2f a3bd d48c 19bc 5dcf fe3d 6479 fb3d
00000070: f098 dc3d 48d4 f33d d2c9 c3bb 9020 36bd
00000080: a3cc fa3d 5de0 05be 9057 d63d a3c5 e13a
00000090: 5fc7 8dbd 5652 963d d84a 9dbd 22a6 c63c
000000a0: 3db9 5c3d 5f86 c9bd 431a ee3d 79bb 77bd
000000b0: 5d77 49bd 95d8 053e 9253 163e 608c 6f3d
000000c0: b3c2 063e 96d8 c93d d9eb cb3d c1f8 ec3d
000000d0: be46 72bc 7c4f 9cbd 41b2 0f3e 3e29 023e
000000e0: 910a a9bd cc66 06be a7a9 ee3d 5ee8 6bbd
000000f0: 72b4 2dbd 57a0 92bd 7068 703d e9f6 cfbd
00000100: 0a6a c53d e0be f93d f796 67bd 4a5d 04be
00000110: eb49 4ebc 2a7f 04be cba9 bbbd 22be ecbd
00000120: 405e e2bd abee 6abd 3ad0 813d a4e8 8abd
00000130: 6b73 053e 4b6e 35bd bd5b b73d 02b4 723d
00000140: 1689 9cbc 08e6 0ebc 28ca a8bd 08da f4bd
00000150: 8642 813d b35f 9f3d 8654 fe3c 9d01 a6bc
00000160: e85b afbd e60b 37bc ff3f 73bd 1481 5e3d
00000170: cfb1 05be 25fe 4c3d 13db f43c c874 6abd
00000180: 793c c4bd 9e54 febd f9fe e63d 21d8 a13d
00000190: 16f7 00be fbaa cc3d bf28 03be ba9c 823c
000001a0: 29b4 0e3e 123d a53d 2bc9 43bd 6595 8dbd
000001b0: 2d7d ae3d ca83 983d 703c 1abe 27ca a73d
000001c0: 2615 86bd 7660 6e3d 58be df3d 1550 f7bd
000001d0: 8724 ee3c 6d98 b0bc 1f45 053e fa69 8fbd
000001e0: b1e2 8b3d 508c a5bd 2828 59bd 7796 e13d
000001f0: 939a 6cbd b3c5 5d3d 9e18 033e 96fc fd3d
00000200: d9b9 023d b32c 4cbd c618 403d 6954 b4bd
00000210: bcac f13c c2ca c7bc 559a 103e f32e 963c
00000220: 0df8 d2bd 0494 0bbe 02ca 013d 0ec3 9ebd
00000230: ffc8 9f3c adff bebd 93e9 01be 6619 abbd
00000240: 6d91 e83c fb5a 223b 9959 8fbd 629e 923d
00000250: 2c87 003d 86d0 0f3e 917f f33b b1d8 39bc
00000260: a2f2 ea3d 33e2 083e 58bb d33d 943d 093e
00000270: e3b8 ddbd f044 bd3b 9dd4 263c 450d 8dbd
00000280: dda7 26bd 4c39 b6bb dfe4 a53d 2072 a73d
00000290: d137 f13d 724b 8b3d 7e07 abbd 3f64 cabd
000002a0: 21ce fdbc bee1 253d 4b7b 84bd 476b a13b
000002b0: 480b cb3b 32af 5dbc 995f e1bd 7ff4 13bd
000002c0: b5e3 c1bc ba72 fcbd 7d7b b2bc 408f f1bd
000002d0: 79e0 073c e060 52bb 0ee4 02be ee3e c13c
000002e0: 0675 fd3d faf1 fe3c f5f4 b13d a694 aebd
000002f0: e202 813d 924b d23d 1867 e93c 05c9 1f3d
00000300: 5f09 073e 8127 9c3c 7fe6 b33d 5e5d f5bd
00000310: eda1 6ebd 311e 8bbd 3f1d babd 766f 09be
00000320: 8e5f 9c3d e2e1 91bd 1ccc f33d c9bf ee3d
00000330: 66c2 253d ef15 4abd 52cd 36bd ff74 fc3b
00000340: fb5b 08be 7db0 8abd 577e 9a3d c05e 86bd
00000350: 8771 09be 7091 6c3c 174b bdbc d2c1 c1bd
00000360: a89e 5ab9 c256 c63c e5e2 803d ae39 03be
00000370: 4156 7ebd 2707 abbd d42d 313d 7a7d 00ba
00000380: ebfc 333c 53f9 70bd 4038 82bd cd55 20bd
00000390: 8b54 cc3c 67a6 ccbd 89d7 813c 3582 ca3d
000003a0: 6cdf 74bd cc60 de3d 2b52 56bd 4868 2e3c
000003b0: cf74 3dbc c7aa ecbd 6657 e53c 2575 08bd
000003c0: 9863 3d3d edfa cebd 0d2f 953d 5e45 05be
000003d0: c742 4cbd 8721 ea3d 8029 b4bc 6f4d a83c
000003e0: 4aeb dbbd 2db1 8dbd 44c1 dfbd 933e f63b
000003f0: dcd9 6cbd 0d5a 77bc 4745 ee3d 4ea2 e73d
-0.05106121 -0.034080297 -0.032405157 0.017731018 -0.098563775 0.026088959 0.081102 -0.037817374
0.016636036 -0.011457613 0.05800806 0.12517677 -0.065224946 0.06194098 -0.027194962 -0.1011794
0.09651943 0.03609722 -0.13495958 0.031438634 -0.033942223 0.12707268 -0.023343235 -0.08096621
-0.079680175 -0.009371955 0.12441895 0.12279013 0.10771358 0.11905724 -0.0059749866 -0.044464648
0.122460626 -0.13073869 0.1046592 0.0017225038 -0.06922793 0.07339923 -0.07680291 0.02424914
0.053887594 -0.098400824 0.11626103 -0.060481522 -0.0491861 0.130709 0.14680317 0.05848348
0.1316021 0.098557636 0.09957094 0.115708835 -0.014787374 -0.07632348 0.14032842 0.12711045
-0.082539685 -0.13125151 0.11653452 -0.05759465 -0.042408414 -0.07159489 0.05869335 -0.10154516
0.09639366 0.1219461 -0.056540456 -0.12926212 -0.012590866 -0.12939134 -0.09163245 -0.115597025
-0.11053133 -0.057356518 0.06338544 -0.06782654 0.1303231 -0.044294637 0.089530446 0.0592537
-0.019108336 -0.008721836 -0.08241683 -0.11955649 0.063115165 0.07781925 0.031046163 -0.020264441
-0.085624516 -0.01117227 -0.059387203 0.054322317 -0.1305611 0.05004706 0.029889619 -0.057240278
-0.09581847 -0.12418483 0.11279101 0.079025514 -0.12594256 0.099935494 -0.12808512 0.015943874
0.13935913 0.08068289 -0.04779927 -0.0691326 0.08519969 0.07447012 -0.15062118 0.081928544
-0.065470025 0.05819746 0.10924977 -0.12075821 0.029070152 -0.021557057 0.13014649 -0.07002635
0.06830347 -0.08083403 -0.05301681 0.11015027 -0.0577646 0.05414362 0.1280236 0.124016926
0.03191552 -0.049847316 0.046898626 -0.088051625 0.029501311 -0.024388675 0.14121373 0.018332934
-0.10301218 -0.13630682 0.03168679 -0.077520475 0.019505022 -0.0932611 -0.12686758 -0.08354454
0.028389657 0.0024773467 -0.06999511 0.071591154 0.03137891 0.14044389 0.0074309786 -0.011343167
0.1147206 0.13367538 0.10338467 0.13402396 -0.1082628 0.0057760403 0.010182527 -0.068872966
-0.04068743 -0.0055610295 0.08100294 0.081760645 0.11778224 0.068014994 -0.083510384 -0.09882402
-0.030982079 0.040498488 -0.06468829 0.0049261185 0.006196413 -0.013530539 -0.11004562 -0.03612184
-0.02366815 -0.1232657 -0.0217874 -0.11794901 0.008293265 -0.00321012 -0.12782308 0.023589578
0.12375836 0.031121243 0.086893 -0.08524446 0.06299378 0.1026832 0.028491542 0.039010067
0.13187169 0.019061806 0.08784198 -0.11980699 -0.058259893 -0.06792868 -0.090876095 -0.13421425
0.07635413 -0.07123162 0.11904165 0.11657674 0.040468596 -0.049337324 -0.044629402 0.0077043767
-0.13316338 -0.06771944 0.07543629 -0.06561041 -0.13422213 0.014438972 -0.023107095 -0.094607964
-0.00020849204 0.024211291 0.06293277 -0.12814972 -0.062093977 -0.083509736 0.043256596 -0.000490151
0.010985593 -0.058831524 -0.06358385 -0.039144326 0.024942657 -0.09992676 0.015849845 0.09888116
-0.059783384 0.10858306 -0.052324455 0.01064498 -0.011563494 -0.11556011 0.027995776 -0.033314843
0.046237558 -0.10106454 0.07284365 -0.13014743 -0.04986837 0.11432176 -0.021992445 0.020544736
-0.10738237 -0.06918559 -0.10925534 0.0075147836 -0.057824954 -0.015097153 0.11634307 0.11310254

bias f4 [100]
00000000: 6b1c 763d 18ff 31bd b403 c93c 4e1f 6e3c
00000010: c2bb 2a3d 8d28 cfbc 307b a03b 4a72 e0bd
00000020: 3bf9 d73d a145 e5bd 0d33 f53d dd53 0abe
00000030: da68 febd 1b3b e6bd 11bc 2dbc 4f3e 0dbe
00000040: a8cc 113d 00b3 eebd 1073 04bb edee b8bd
00000050: 7c28 863c f257 053e cae4 cd3d 0175 c5bd
00000060: 1923 773d ddef 493d 86d0 fc3d 00ab dcbb
00000070: 6316 d03d bcd5 403d 1409 fd3d 9311 0bbe
00000080: 19b3 9c3c df55 80bd bdd3 a0bd de62 dfbd
00000090: 5fef 8fbd fd74 b43d f1ba 7d3d 92de 4cbd
000000a0: fe41 523d 3c50 13be 7ff6 263d fe45 e13d
000000b0: 8058 883d 1879 dcbd 21ef 313d 2a43 8cbd
000000c0: 3f05 e73c 7703 dfbc 4949 d1bd 6cab 9bbd
000000d0: 655a 8b3d 9cba f0bd f736 00be e586 113d
000000e0: 125b 1fbb d558 1a3e 654b 24bd c53f 2bbd
000000f0: 18ec cdbc 2c52 9fbc a918 ae3d 418c b73b
00000100: 1e29 e93d 94f5 593c 824f a83d 9352 d5bc
00000110: f671 b0bc b3f4 313d 8572 88bd 27ba 713c
00000120: a542 b6bd 354e f2bd 13de e5bd 4dda d4bb
00000130: 5b84 8cbd e9d4 60bd 3717 fbbd 16c7 e33d
00000140: 8c60 e53d 8192 73bc 913a bc3d a5ca c1bc
00000150: 4239 01bd 002a f13b 5b66 0a3d 9e49 013e
00000160: ddc9 06be 652d 11be 8ed7 623d ed94 6cbd
00000170: 7574 9f3d 1d23 9dbd ad9d a03d 2edd 36bd
00000180: b4e4 2dbb 2611 25bd c897 afbd be2f 7ebd
0.060085695 -0.043456167 0.024537899 0.014533831 0.041682966 -0.02528789 0.0048974976 -0.10959299
0.10545584 -0.11194921 0.11972628 -0.13508554 -0.124223426 -0.11241742 -0.010603921 -0.137933
0.035595566 -0.11655235 -0.0020210184 -0.090299465 0.016376726 0.1302183 0.10053404 -0.09641457
0.060336206 0.049301017 0.1234446 -0.006734252 0.1016052 0.047078833 0.12355247 -0.13580923
0.01912837 -0.062663786 -0.07852886 -0.10907529 -0.07028078 0.08811376 0.06194586 -0.050016947
0.051332466 -0.14386076 0.04076242 0.10999678 0.06657505 -0.10765284 0.04344094 -0.06848748
0.028200744 -0.027223332 -0.10219056 -0.076010555 0.06804351 -0.11754343 -0.12520967 0.035529036
-0.0024315757 0.15072949 -0.040110964 -0.041808862 -0.025136992 -0.019448362 0.08500797 0.0056014364
0.113847956 0.013303179 0.0821829 -0.026040351 -0.021538716 0.043446254 -0.06662468 0.014753855
-0.0889943 -0.11831323 -0.11223998 -0.00649575 -0.06861182 -0.054890547 -0.12260287 0.11121957
0.112000555 -0.014866472 0.09190858 -0.023656199 -0.031548746 0.007359743 0.03378902 0.12625739
-0.13162942 -0.14177473 0.05538135 -0.057759214 0.07785884 -0.07672713 0.07842574 -0.044644527
-0.0026534023 -0.040299557 -0.08573872 -0.06205725

weight f4 [100, 100]
00000000: bd3f 8bbd e7e1 6fbc 83f8 a43d a94e a0bd
00000010: 9aa2 b3bb 1d4e 4cbd d286 b13d b262 7abd
00000020: a76d 523c 1105 8c3d d374 973c 57e4 733d
00000030: 5038 8cbd da76 44bc 6598 553d e204 b3bd
00000040: 5647 bd3d a053 11bd 4c01 9b3d 7a15 bc3d
00000050: 64db 663d e790 633c 5378 75bd 8dce 863c
00000060: 2c30 dd3c 98e4 98bd c22e c6bd 16f5 72bd
00000070: 3a0f 91bd eab5 803d 8662 bcbc 0c14 8ebd
00000080: 0627 aebd 2d3f d73d 1059 10bd 8719 d4bc
00000090: e9c3 5dbd ef46 83bd 224b b9bd d3e5 a4bd
000000a0: b607 043d 2a06 95bd 6a0f c63d dc46 a73c
000000b0: c7ba e13c 152e 53bd e3b3 ce3c 275b 6b3d
000000c0: daf2 07bd fef0 9c3d 4053 a23d f0d9 30bd
000000d0: 7f47 47bd aa4b 90bb 0b46 a2bd 5add e93c
000000e0: d294 7c3d 6d34 7fbd b9d1 0fbd 611f a5bd
000000f0: 656c a0bd 1c20 a73c 89d2 86bd fca0 9d3c
00000100: ee97 a73d 96bb bfbc 8ddf 8c3d a0c3 fdbc
00000110: 14f9 a23c b5df 953d 9a5b ae3b a380 d23d
00000120: 4539 813d 462a 183d 525b 0fbd caa0 55bd
00000130: 4778 43bd 09d7 3b3d 25d2 8a3b 2eaa 113d
00000140: 2dea 3c3d 8c3d aebd 4ac2 2dbd e7a4 ba3d
00000150: a1fc b7bc f34f bb3b 439e e73c 829d e23c
00000160: 8e97 a1bd 14d7 8ebd 8709 0f3d 6db2 8fbc
00000170: f4d2 8abd 6d84 4dbc f78b 51bd 0098 76bb
00000180: fc19 97bd 52c6 bb3c 5b80 413d 678e 953d
00000190: 0a50 a03d a3c0 c13d e874 553d 874d abbd
000001a0: 9788 c33d 9ae4 3abc 6de9 5f3d 4b66 743d
000001b0: d07e 313d 4329 a3bd 93f2 b03b 80de 56bd
000001c0: 1de1 eebc 1cd6 b13d 1b98 abbc 00bd a0bc
000001d0: 9c31 233d 8630 573d b47b ba3b 61d6 153d
000001e0: da8f 5ebd ba17 9dbd 52b4 93bd 8d44 813d
000001f0: 7c33 b63d 48e8 413c 64b6 123c ee78 323b
00000200: cd25 e1bb 702c 59bd 7f5a d5bc 44a9 183d
00000210: 44aa 2bbd 7167 b23d 04a0 9d3d 68de c63d
00000220: 756e 223d 3af0 b43c d494 c53d e37c 1cbd
00000230: 84fb 8cbc 1ca0 a3bd b066 3cbd ed42 8fbb
00000240: 5110 68bd 24e5 a3bd 5ce5 21bd 21a7 e93c
00000250: 67cc 43bd e9e8 87bd 5a53 3bbd 178e ac3c
00000260: 2fe2 3e3d 3a2d ba3b 9df3 b1bd f89e ab3d
00000270: 1c5a 8b3d 47ab aa3c 1a02 933d 559f 753a
00000280: e704 893d df0f 103d afd5 76bd 54eb 8bbd
00000290: fdba ba3d bd7c eebd 5d43 5cbc 01f8 8a3c
000002a0: ef90 dbbd 78fd 13bd bdad 52bd bc7b b33d
000002b0: 1c7a e63c ce19 97bd 4163 c3bd 022b cd3c
000002c0: 4fc4 e53c 75db 68bc 309c c43d 8ca2 20bd
000002d0: 41ed c9bd f926 783d 3af3 f6bc edb3 893c
000002e0: 026b f0bd 2035 9ebd 648c 363d a370 9d3d
000002f0: 84b9 413d 5d3c 0fbd 17ab 2dbd 46bc 21bd
00000300: 0776 fabb d327 7a3d 6d16 b9bd 2308 92bd
00000310: f066 863d b41a c6bd 2236 b93d 4566 8d3d
00000320: 96cf 873d bd32 64bd bf24 bdbd ab42 9fbd
00000330: bd8f b83d c300 943d c08f b3bd 38e8 d7bd
00000340: c310 82bd 6e07 5d3c dadc 34bc 9a0d c53a
00000350: 1f14 713d da93 b3bd c095 ddbc 298e af3d
00000360: 2b9f 11bc 5335 31bd f647 b83c b42f 83bd
00000370: 69bc 943d 106b a1bd 6738 213d dd6c c4bc
00000380: 17e5 22bd 6246 cabd 2f62 3e3c c479 a73d
00000390: 6702 093c 7744 d0bd c9cc 823c 8a58 493d
000003a0: faaa 953d 0124 8c3d 8d96 c73c 738a b63d
000003b0: c915 a5bc 85de 0d3d 6092 9e3d 705c a7bd
000003c0: 794e d43c f365 ee3c 749c a83d 9f11 d8bd
000003d0: 5e2e 5fbd 20ef 263d 780f babd a0af 12bd
000003e0: b7ae a43d acb7 543c 6a39 7abd e1bb 82bc
000003f0: e5da 4b3d 5551 e13b 170c 643d fb0b b2bd
-0.067992665 -0.014641262 0.08055212 -0.07827503 -0.00548203 -0.049879182 0.08668293 -0.06112928
0.012843526 0.06836904 0.018488323 0.059543934 -0.06846678 -0.011991227 0.052147288 -0.08741166
0.09242122 -0.03548014 0.07568607 0.09183784 0.05636157 0.013889528 -0.059929203 0.016455913
0.02700051 -0.07465476 -0.09676887 -0.059315763 -0.07082982 0.06284697 -0.022996198 -0.069374174
-0.08503537 0.10510097 -0.035241187 -0.025891079 -0.054141913 -0.06410014 -0.090475336 -0.08051648
0.032233916 -0.07276566 0.09670909 0.02041953 0.027554883 -0.05155762 0.025232261 0.057459977
-0.033190586 0.07663153 0.07926035 -0.04317659 -0.04865217 -0.004403551 -0.07923516 0.028547931
0.061665364 -0.062305856 -0.035112116 -0.08062626 -0.078331746 0.020401053 -0.06583125 0.019241802
0.08183275 -0.023404878 0.068785764 -0.03097707 0.01989416 0.07318059 0.0053209784 0.10278442
0.063097514 0.03714969 -0.0349992 -0.052155294 -0.047722127 0.04585937 0.004236477 0.035562687
0.046121765 -0.08507833 -0.042421617 0.09113484 -0.02245933 0.005716318 0.028273707 0.027662996
-0.07890235 -0.06974617 0.034921195 -0.017541135 -0.06778517 -0.01254378 -0.05115887 -0.003762722
-0.07378003 0.022921715 0.04724155 0.07302552 0.07827766 0.09460571 0.052113444 -0.083643965
0.09547537 -0.011407042 0.05466597 0.059667867 0.04333383 -0.079668544 0.005400011 -0.052458286
-0.029160077 0.08683416 -0.020946553 -0.019621372 0.039842233 0.05253651 0.005691016 0.0365814
-0.054336406 -0.07670541 -0.07212128 0.06311903 0.088965386 0.011835165 0.008954618 0.0027232724
-0.0068709613 -0.053020895 -0.026044128 0.0372708 -0.041910425 0.08711136 0.07696536 0.097103894
0.03965612 0.022087205 0.09647527 -0.03820504 -0.017209776 -0.07989523 -0.045996368 -0.004371992
-0.056656186 -0.080026895 -0.039525375 0.028522076 -0.047802355 -0.06636221 -0.045733787 0.021063847
0.046602424 0.005681661 -0.08689044 0.0837993 0.068042964 0.020833625 0.07178135 0.00093697506
0.06690388 0.035171386 -0.06026238 -0.06831995 0.091176964 -0.11644886 -0.013443795 0.01696396
-0.10721003 -0.0361304 -0.05143522 0.08763835 0.028134398 -0.07377969 -0.095404156 0.025044922
0.028047709 -0.014212479 0.09600103 -0.039217517 -0.09859706 0.060584042 -0.030145276 0.016809428
-0.1173916 -0.077249765 0.04456748 0.076874994 0.047296062 -0.034969676 -0.042399492 -0.039486192
-0.0076434645 0.061073136 -0.090374805 -0.07130458 0.065626025 -0.09673062 0.09043528 0.06904272
0.06631391 -0.05571245 -0.092355244 -0.07776388 0.09011791 0.07226708 -0.087676525 -0.10542339
-0.06350853 0.013490541 -0.011038983 0.0015033961 0.05885708 -0.08768435 -0.027048945 0.08572037
-0.008888046 -0.043263745 0.022495251 -0.06405583 0.07262499 -0.07881749 0.03936043 -0.023977691
-0.03976926 -0.09876706 0.0116200885 0.08177522 0.008362389 -0.10169309 0.01596679 0.049156703
0.07308002 0.06842805 0.02436378 0.08913126 -0.02015199 0.03463604 0.077427626 -0.08171928
0.025916325 0.029101348 0.08232966 -0.10550236 -0.05448758 0.04075539 -0.09084982 -0.03581202
0.08041137 0.012983244 -0.06108991 -0.015958728 0.0497693 0.0068761506 0.055675592 -0.08693691

bias f4 [100]
00000000: dd6e b7bd 418c 293d 5de4 d5bb 525f 8a3d
00000010: e7f6 bdbd bc03 b2bd 730a de3c 62bf 9abd
00000020: fadf a83d 9675 44bd aefa 933c e54e 893b
00000030: e7b6 d6bd efaa 77bd 88d9 92bd 8fd6 7b3d
00000040: cf14 6abc 17c0 89bd 256d 5b3d 4a32 c2bd
00000050: c37d b73d 070d a53d df2a 92bd b322 dfbc
00000060: 0898 493d e6ac bd3d b533 823d a9f6 5d3b
00000070: 68de 1ebc 3378 93bc 0994 823d 28fd ce3d
00000080: c2a9 fd3b e654 8d3d 96b1 583d 63a5 353d
00000090: 5f3d 1ebd b910 d7bd efe3 72bd 0f11 a23c
000000a0: 75b3 1d3d 2ef1 7e3c 227b b4bd 3123 cebb
000000b0: dd71 95bd d612 e5bd 49bc d2bd f07a 123c
000000c0: 9748 c13b fd31 083d a29c e33c a31e 0dbd
000000d0: 88ae 833c 4d41 943d e7c9 7e3d 2d47 863d
000000e0: f3b2 9e3d 2bf2 8b3d 5ea4 373d cd33 f5bc
000000f0: 64bd 5bbd b335 8a3c 4d52 c23d a4cb be3d
00000100: d609 c73b 927e dd3c 7bf5 19bd 2947 95bd
00000110: 7866 853d a6e7 903d 9be9 a23c bdbe 77bd
00000120: e321 cbbd 20fc 4a3c 95d2 a03d 38da 66bd
00000130: 1531 a9bc 33d1 30bd 9fcd b1bd 0094 17bb
00000140: 0b6c 05bd 3865 4a3d d830 9e3d 0a69 92bd
00000150: 7ad4 9dbd 1afe 11bd e0af 8fbd a88c 0f3d
00000160: 601d 593d 89e2 1c3d fc55 563d 0457 8f3d
00000170: bea5 f53c 7d66 0a3d c656 84bc f546 6fbd
00000180: 756c 7abd 1f1b 65bc 7bba 253d 5075 bbbd
-0.08956692 0.041393522 -0.006527467 0.06756462 -0.092756085 -0.086921185 0.027104592 -0.075560346
0.08245845 -0.0479637 0.01806387 0.004190313 -0.104841046 -0.06046575 -0.07170397 0.061483916
-0.014287188 -0.06726091 0.053570885 -0.09482248 0.08959534 0.080591254 -0.07137083 -0.027238226
0.049217254 0.092614934 0.063575186 0.0033868945 -0.0096965805 -0.018001651 0.06375892 0.101068795
0.007741184 0.06900959 0.052903734 0.04434718 -0.038632747 -0.105012365 -0.059299406 0.019783525
0.03850122 0.015560431 -0.08812548 -0.0062908162 -0.07297108 -0.11185233 -0.10289819 0.008940443
0.005898546 0.033250798 0.02778465 -0.034453046 0.016074434 0.07239018 0.062204268 0.065565445
0.077489756 0.06833299 0.044834487 -0.029931927 -0.053647414 0.016871309 0.09488354 0.09316185
0.0060741706 0.027037892 -0.037587624 -0.07288963 0.06513685 0.070754334 0.019886782 -0.060484637
-0.09918573 0.012389213 0.07852665 -0.056360453 -0.020653287 -0.043168258 -0.08681797 -0.0023128986
-0.03257374 0.049412936 0.0772416 -0.07148941 -0.07706542 -0.03564272 -0.07015967 0.03504625
0.05300653 0.03830198 0.052328095 0.06999019 0.029986259 0.033789147 -0.016154658 -0.05841728
-0.06113859 -0.013983517 0.040461045 -0.09153235

weight f4 [73, 100]
00000000: 6c66 e23c f306 b2bc 356c e3bc d0c3 e83c
00000010: 4f19 f63c 7982 0d3d a177 793c aef5 1bbd
00000020: 336b 60bb 384f 3f3d 7dcf 97bd f829 92bd
00000030: 8f2c c2bd 6965 913c cafd 7d3d 6fa8 69bd
00000040: 9432 6abd 153e c03d 6361 abbc 21eb 82bd
00000050: c0f3 483d 9f01 b33d 1210 8cbc 802b 71bc
00000060: 77ae 2b3d 5c6a 2c3d b710 7ebd 29b0 853d
00000070: 8bc2 983d b7ca acbd 79e7 1ebc f0ab adbc
00000080: 8b97 d23b 431e 5c3c 41d5 553c b766 dcbc
00000090: 2453 42bd 3618 63ba f8b5 c03d 8032 963d
000000a0: 5c5e 48be 78ea 17bd 5fac 3d3b 3af6 bc3d
000000b0: ad4a 72bd 10f1 70bd 760f 81bd cbd2 c2bd
000000c0: b8bb a8bd 52e8 bcbd e0c2 c8bc d334 93bc
000000d0: 5f65 b0bd 3919 86bd d33a 843a dd8f a53d
000000e0: 5fbc 823c 96f2 85bc ba8f 7b3d bd79 533d
000000f0: 097e b0bd 7888 b0bd 7834 6e3d bf41 d1bc
00000100: 7c2e bfbd 939d 6d3d f74a c63d e842 cabd
00000110: 72ea 943d 78eb dabc 0e4a 7abd 05ef 123d
00000120: 0ef5 8f3d 00d4 9ebc 1894 db3c cc26 8fbd
00000130: 586f 8bbd 3fd3 a83c 249b 46bd b3f0 393c
00000140: 332f 9abd dcf9 9c3d bdba a43c 6fa1 94bd
00000150: 37ae 25bd f66f dabd a658 babd 2457 c83c
00000160: aa94 943d 3897 a63d 48ce 403b 753d 86bd
00000170: 5cf9 a13d 50d0 bfbd b4e7 c9bd db74 a4bd
00000180: a658 aabd 422b 97bd 9189 7f3d e68b 363c
00000190: 9d8c c7bd 90c0 87bd 1302 963d 4afb 88bd
000001a0: 5760 32bd 44d4 823a a61f d0bd 5f59 4e3d
000001b0: 8f70 223d 3a69 983c 61c7 81bd 6464 a13d
000001c0: f70f d63c ec56 d8bc a15b 72bd 95f1 f4bc
000001d0: c943 a33d 1dfa 0cbd c938 573d 98e6 90bd
000001e0: d676 60bd ed82 80bd 8086 a43d 9381 01bd
000001f0: 5331 b2bd f693 02bc 08b4 9cbd 4d65 753d
00000200: e65c 903d cd47 cc3c 0632 a2bd 5e25 e0bd
00000210: 4ebd f73c 69e8 963c 7865 c33c 7384 7dbd
00000220: 6356 d2bd de2b aa3d 59cc 4b3d ea88 d0bd
00000230: 3f0f 97bd 9daf 3c3d 8343 64bc 00eb a43d
00000240: a642 9b3d 12e2 993d 8aba 2cbd b9aa 933c
00000250: e0d2 2fbd cdf2 58bc 0912 d1bd 9524 cabd
00000260: 01fb 0cbc a655 513d 6784 c9bd d440 813d
00000270: 17ef b4bd 21df 7b3d 1533 4cbd 5a07 babc
00000280: 0e8d a2bc 4d63 173c 4e11 a03d 3825 1b3c
00000290: 7bad af3d 63a8 e7bc 3d1b 593d ed8e 2d3d
000002a0: c6ab 83bd 2147 893d 5f74 3bbd 58c1 aabd
000002b0: e74b 2f3d 5081 773d 8ca1 a83d 5cd9 8b3a
000002c0: b09e a2bd 1d14 943d d230 14bd b052 643d
000002d0: 62db 25bd 788e 8dbb 8f49 493d 1a0d 21bd
000002e0: c809 403d 6f8e 45bd 5c93 b43c c4bf 613d
000002f0: 94e0 903d 73a1 6abc 2e83 c33c e0df a13b
00000300: 4bbc 3fbc 6989 323c 18f5 2bbd 5a9f 9c3c
00000310: 2381 343d 4e5e 193d 8519 7abd ecc0 9a3d
00000320: b5ee 273d 94cf c4bd 2c03 6d3d e8a6 1c3c
00000330: b1c9 48bd 2165 a43d 9a49 bbbd b7a0 acbd
00000340: b884 c8bd 5a5a 6a3d 8bce cebd a965 24bd
00000350: ee8d 9c3d f894 853d 8336 a3ba 3ef8 cf3d
00000360: ceb1 82bd 88e8 78bd bfe3 c03b 5cf1 cebd
00000370: 5380 b9bb e6f2 c2bd 0464 643d 07dd e13c
00000380: cb79 6abc 00f7 81bb 9a87 d8bc 9653 163d
00000390: b7cf 88bd 7823 95bd 6b02 c0bd 35cb a7bd
000003a0: dd34 4d3c 6fed fb3b 2764 c23b 4bbc 6f3d
000003b0: e5ea 27bd 8f1f 51bd 728d 80bc ca48 57bd
000003c0: 3ee7 923d 251a a23d 5edf c9bd 18af 8cbb
000003d0: 3a50 59bd a9f7 8e3d f41f 6d3d 34df 3e3c
000003e0: 2958 533d 553c 0a3d 1355 363d 524c a73d
000003f0: f83e 87bd 807f c4bd 49a8 2e3d f63a b83c
0.02763673 -0.02173183 -0.027761558 0.028413683 0.030041365 0.034548257 0.015226276 -0.038076095
-0.0034243583 0.04670641 -0.07412622 -0.07136911 -0.09481155 0.017748551 0.06200961 -0.057045396
-0.05717714 0.09386841 -0.020920461 -0.063925035 0.049060583 0.087405436 -0.017097507 -0.014719844
0.04191443 0.04209362 -0.06202766 0.065277405 0.07458981 -0.08437102 -0.009698742 -0.02120015
0.0064267567 0.013434949 0.013051332 -0.026904447 -0.04744257 -0.00086629705 0.09409708 0.07333851
-0.19567245 -0.03708884 0.0028941853 0.092266515 -0.059153248 -0.058823645 -0.06301777 -0.09512862
-0.082389295 -0.09223999 -0.024506986 -0.017969524 -0.08613085 -0.065477796 0.0010088332 0.0808408
0.015958963 -0.016351026 0.061416365 0.05162977 -0.08617789 -0.08619779 0.058155507 -0.025544045
-0.09335038 0.058011603 0.09682267 -0.098760426 0.072712794 -0.026723608 -0.06110578 0.035872478
0.07029162 -0.019388199 0.026804015 -0.06989822 -0.068083465 0.020608542 -0.048487797 0.011348891
-0.07528534 0.076648444 0.020108575 -0.072573535 -0.040449347 -0.10665886 -0.090989396 0.024455614
0.07254918 0.081343114 0.0029419828 -0.06554691 0.0790889 -0.09365904 -0.09858647 -0.08030101
-0.083176896 -0.07381298 0.062387053 0.011141753 -0.09743617 -0.06628525 0.073246144 -0.066885546
-0.043548908 0.0009981473 -0.101622865 0.0503782 0.039658125 0.018604863 -0.06336857 0.07880476
0.02613066 -0.026408635 -0.059169415 -0.029900352 0.07971913 -0.034418214 0.05254439 -0.07075232
-0.05480083 -0.06274972 0.08033466 -0.031617712 -0.08700814 -0.007969847 -0.07651526 0.05991106
0.07048969 0.024936581 -0.079196975 -0.10944627 0.030241635 0.018421369 0.023852095 -0.06189389
-0.10270383 0.08309148 0.049755428 -0.10182364 -0.07375955 0.046065915 -0.013932112 0.08052635
0.075810716 0.075138226 -0.042170085 0.018025743 -0.042925715 -0.013241482 -0.10208518 -0.09870259
-0.008604766 0.05110707 -0.09839707 0.06311193 -0.08834665 0.06149209 -0.049853403 -0.022708584
-0.01984265 0.009239984 0.078158006 0.009469323 0.08578011 -0.028278535 0.053004492 0.042372633
-0.064292476 0.0670302 -0.045765277 -0.08337659 0.042796995 0.060426056 0.082339376 0.0010669637
-0.079404235 0.07230399 -0.03617937 0.05574292 -0.040492423 -0.004319962 0.049142417 -0.039319135
0.046884328 -0.04823154 0.022042923 0.055114523 0.07074085 -0.014320719 0.023866262 0.004940018
-0.011702607 0.010897019 -0.041981786 0.019118953 0.044068467 0.03744345 -0.061059494 0.07556328
0.040999133 -0.09609905 0.057864353 0.009561278 -0.049020473 0.08027101 -0.09144898 -0.084290914
-0.09790939 0.057215072 -0.10097989 -0.040136013 0.076442584 0.06522554 -0.0012452159 0.1015477
-0.0638157 -0.060768634 0.0058865245 -0.101046294 -0.0056610494 -0.095189855 0.055759445 0.027571214
-0.014311264 -0.0039662123 -0.026431847 0.036700808 -0.066802435 -0.07282156 -0.09375461 -0.081930555
0.012524811 0.0076882164 0.0059323492 0.05852918 -0.040995497 -0.051055487 -0.015692446 -0.05255965
0.07173012 0.07915143 -0.09857057 -0.0042933337 -0.053055026 0.06980831 0.0578918 0.011649895
0.051597748 0.033748943 0.044514727 0.08168854 -0.06603807 -0.09594631 0.042640958 0.022489052

bias f4 [73]
00000000: ac00 00bd 65a5 1abd 51f3 913d 80aa 6e3d
00000010: 548b 97bc f5e2 20bd 9708 923d 045a d83d
00000020: 932f 103c a448 93bb bc7e 1ebc 88a1 7dbb
00000030: d7b0 81bc e980 d6bc 253f 6dbd 7234 37bd
00000040: d66a a93d 3742 9b3a 3550 6b3d 2948 43bd
00000050: 627b d13d ba95 7bbd 50cf 5c3b 0f18 ee3a
00000060: 29ca b53c e7e3 98bd 4b98 8e3d 45dd a13d
00000070: 37ed 72bd 09ab 673c 5986 b7bd fd64 33bd
00000080: 3293 b83d 0460 aebd 33e5 733b 448d 42bd
00000090: 9ceb 0b3d 2743 d8bd 8ffb 023d 30b5 c63c
000000a0: a7de 44bd 0355 67bd f934 9dbc ab88 38bc
000000b0: d48b 213d a4a5 503d a7d7 9abd 52b6 daba
000000c0: 56d9 77bc f591 aa3c 3a4c bdbc 32ad 993d
000000d0: eee8 6cbd b120 4e3d 50f0 c43c fd26 de3d
000000e0: 76e4 833c d952 a3bd e30b 773d b513 3aba
000000f0: 8ab4 db3c 43bc 753d 09fc b43c c64e 43bd
00000100: f242 abbd 9dfe 4d3d 9bab 23bd a5b8 0dbd
00000110: ed70 74bd a0b1 b4bd 707d 76bd daf7 93bd
00000120: 2599 d3bd
-0.03125064 -0.03775539 0.07126487 0.05826807 -0.018499054 -0.039278943 0.07130545 0.10564044
0.008800405 -0.0044947434 -0.0096737705 -0.0038701016 -0.015831394 -0.026184516 -0.057921547 -0.04472775
0.082723305 0.0011845295 0.05744954 -0.04767624 0.102286115 -0.061422087 0.0033692904 0.0018165129
0.022191124 -0.07465344 0.06962641 0.07903532 -0.059308257 0.014139899 -0.08961172 -0.04379748
0.0901245 -0.08514407 0.003721547 -0.047498003 0.03416024 -0.10559683 0.031978186 0.024256319
-0.0480639 -0.056477558 -0.019190298 -0.011263053 0.03943999 0.050939217 -0.07560664 -0.0016686416
-0.0151275005 0.02082155 -0.023107637 0.075037375 -0.057839327 0.050324146 0.024040371 0.1084728
0.01610015 -0.07974786 0.06031407 -0.00070982735 0.026819486 0.059993993 0.022092836 -0.047682546
-0.08362378 0.050291646 -0.039958578 -0.03459992 -0.059678007 -0.08822942 -0.06017822 -0.07225008
-0.103319444
