91spots_DualCongestion.pth (torch, 233415 bytes, 10 tensors)

weight f4 [50, 455]
0.0058798986 0.0142431995 -0.032039974 0.037619576 -0.012208689 -0.036002804 0.029842963 0.010694458
-0.027805958 0.038514845 0.0075069 -0.04061106 0.000116198644 -0.0113681145 0.032676406 0.02405368
0.038634043 -0.03336078 -0.023988765 -0.017136537 -0.02529266 -0.022700734 0.0049221986 -0.033830125
-0.0050534373 0.0036988917 0.030777559 -0.032058705 0.040045574 0.025158152 -0.026445948 0.026263326
0.022771131 -0.013528815 0.041142765 0.02168942 0.018511405 0.023445845 0.005495907 -0.009803306
-0.04299289 -0.050699484 0.020519096 0.027623592 0.0060954792 0.03350929 -0.048443522 -0.016981024
-0.0133124115 0.034427106 -0.02036089 0.022097904 -0.018776583 0.010785011 -0.040080436 -0.0011157573
-0.045337543 0.012450428 -0.039542254 -0.03110419 -0.04549546 0.03035481 -0.032023445 0.036034536
-0.036401473 -0.049939875 0.033743974 -0.0118926205 0.012383718 -0.04034717 -0.027531786 0.018753575
0.016038097 -0.0031336248 0.031622753 -0.04080625 -0.016093561 -5.657895e-05 -0.027187772 -0.031168552
0.020065254 0.028551824 -0.0254284 -0.034926496 0.012717227 0.03391113 0.006898305 0.031338297
0.0133247 0.037480798 0.0359671 -0.039419107 -0.024207437 -0.027164541 0.023748802 -0.010351377
0.0058351774 -0.040972035 0.021023966 -0.002869127 -0.040569786 -0.026299793 -0.0012328031 -0.029696131
-0.03541613 0.019015852 0.021636153 0.04203735 -0.047568735 0.01853136 -0.048665307 0.032414872
-0.042043805 -0.011297563 -0.020908067 0.02539701 -0.04927721 0.02906624 0.0016859182 -0.00016287487
-0.03099819 -0.022828849 -0.027223317 -0.033403512 -0.045522355 -0.010288147 -0.034074187 0.029847866
0.02935954 -0.0048871343 -0.034796804 0.03537408 0.008806261 0.01850593 0.028190745 0.031730235
-0.038314912 -0.03543307 0.029444186 0.00086633395 -0.036623817 0.02040622 0.030698126 -0.03177929
-0.04723232 -0.02828753 0.0252899 0.008964118 0.0015960466 0.007885586 -0.02760164 0.0048147747
-0.03747846 0.026078284 -0.036711335 -0.005926518 -0.019120866 0.017888775 -0.028643915 -0.027696686
-0.0019425005 -0.04302882 -0.006665038 -0.044574358 -0.032446887 -0.026385624 -0.04835137 -0.044743452
0.0034885725 -0.01951956 -0.014419618 0.04236755 0.03398586 -0.036786832 -0.039691657 0.03476116
0.03845565 -0.014759465 -0.006781606 -0.038573794 0.0033140143 0.032028917 -0.020376742 -0.027500864
0.0020767895 -0.044259626 -0.003087175 0.014769932 -0.011081363 0.01879017 0.03836945 -0.02021661
0.029949913 -0.01973791 -0.033415843 -0.010838902 -0.0086176945 -0.048721936 0.01842624 -0.013836368
0.020023517 -0.040433332 -0.048955802 -0.019955738 -0.037958886 -0.04201164 0.0132303005 0.0115373
-0.025392903 -0.036187403 0.00794371 0.004581281 0.03601565 0.02211748 0.04381368 0.009270598
-0.011944406 -0.0074304487 -0.0067069074 0.03703491 0.029539365 0.03466333 0.008606959 0.0011667385
0.042840526 0.016996546 0.011347033 -0.022921236 0.007240568 0.015645826 0.0046267444 0.023839043
-0.048670076 -0.015139303 0.024849387 -0.04873103 -0.030921036 -0.032552462 -0.04764608 0.041184034
0.018904978 0.039687198 0.02215204 -0.038019177 0.035004303 -0.034171242 0.0005177723 -0.015468854
-0.04001136 0.008311407 -0.026142024 0.04108528 -0.028235596 0.0050664684 0.028214032 -0.037039932
00000000: 2aac c03b 4f5c 693c 593c 03bd fc16 1a3d
00000010: f406 48bc ad77 13bd 3b79 f43c cf37 2f3c
00000020: 52c9 e3bc bec1 1d3d 71fc f53b c857 26bd
00000030: acaf f338 5441 3abc b2d7 053d 390c c53c
00000040: bb3e 1e3d 50a5 08bd 1684 c4bc ec61 8cbc
00000050: 8d32 cfbc e4f6 b9bc 654a a13b 7591 0abd
00000060: 4e97 a5bb 1b69 723b 3821 fc3c fd4f 03bd
00000070: d406 243d 7818 ce3c 2ca5 d8bc 3026 d73c
00000080: 868a ba3c f6a7 5dbc 5185 283d 03ae b13c
00000090: 3ba5 973c 8011 c03c 0217 b43b 0c9e 20bc
000000a0: 5019 30bd 43aa 4fbd aa17 a83c df4a e23c
000000b0: 96bc c73b 0a41 093d b76c 46bd ca1b 8bbc
000000c0: 4d1c 5abc 7003 0d3d e2cb a6bc aa06 b53c
000000d0: 59d1 99bc 9db3 303c 622b 24bd 9a3e 92ba
000000e0: dcb3 39bd e1fc 4b3c 0ff7 21bd 37ce febc
000000f0: 7359 3abd a7aa f83c 042b 03bd f398 133d
00000100: b619 15bd c18d 4cbd 1f37 0a3d 44d9 42bc
00000110: 14e5 4a3c 1343 25bd 578a e1bc 19a1 993c
00000120: 5462 833c 805d 4dbb dc86 013d 7424 27bd
00000130: a5d6 83bc 2f4f 6db8 e4b8 debc 3155 ffbc
00000140: e35f a43c 84e5 e93c 384f d0bc 160f 0fbd
00000150: eb5b 503c 66e6 0a3d 2d0b e23b 965c 003d
00000160: d84f 5a3c 7785 193d 3d52 133d ee75 21bd
00000170: ad4e c6bc 2c88 debc d98c c23c d298 29bc
00000180: 0435 bf3b 4bd2 27bd 743a ac3c f707 3cbb
00000190: 812c 26bd aa72 d7bc 0296 a1ba 4d45 f3bc
000001a0: 8110 11bd 22c7 9b3c 4d3e b13c 5b2f 2c3d
000001b0: 6fd7 42bd 14cf 973c 4655 47bd 75c5 043d
000001c0: 2036 2cbd 6a19 39bc 6547 abbc 640d d03c
000001d0: e6d6 49bd 531c ee3c 07fa dc3a 64c9 2ab9
000001e0: ebef fdbc 9103 bbbc 6f03 dfbc 1fd2 08bd
000001f0: a675 3abd 9e8f 28bc 6091 0bbd 8383 f43c
00000200: 6b83 f03c 4124 a0bb 1887 0ebd 69e4 103d
00000210: 2348 103c c099 973c 47f0 e63c 90f7 013d
00000220: 19f0 1cbd 4422 11bd ef34 f13c b01a 633a
00000230: db02 16bd f22a a73c a37a fb3c 002b 02bd
00000240: ad76 41bd 40bb e7bc c42c cf3c 3cde 123c
00000250: 7032 d13a 8b32 013c d61c e2bc 42c5 9d3b
00000260: 0483 19bd 20a2 d53c a05e 16bd 3c33 c2bb
00000270: 5da3 9cbc 7b8b 923c a5a6 eabc 29e4 e2bc
00000280: 809b feba fd3e 30bd 6466 dabb 9a93 36bd
00000290: 07e7 04bd aa26 d8bc 160c 46bd e944 37bd
000002a0: 89a0 643b 7ce7 9fbc 4340 6cbc 9989 2d3d
000002b0: c234 0b3d caad 16bd b893 22bd b861 0e3d
000002c0: ac83 1d3d afd1 71bc 3c38 debb 8eff 1dbd
000002d0: ef2f 593b c130 033d 20ed a6bc 7e49 e1bc
000002e0: bf1a 083b 9549 35bd 3452 4abb 96fd 713c
000002f0: 9b8e 35bc d8ed 993c 4929 1d3d 4e9d a5bc
00000300: 8559 f53c 66b1 a1bc 0ddf 08bd a695 31bc
00000310: 3b31 0dbc a790 47bd a0f2 963c efb1 62bc
00000320: 5c08 a43c 6c9d 25bd e185 48bd 377a a3bc
00000330: c77a 1bbd 6614 2cbd e7c3 583c f206 3d3c
00000340: c704 d0bc 3e39 14bd 5626 023c 921e 963b
00000350: 2585 133d b82f b53c f975 333d b5e3 173c
00000360: 78b2 43bc 1f7b f3bb 9ec5 dbbb ebb1 173d
00000370: 8afc f13c 23fb 0d3d 3404 0d3c 3fed 983a
00000380: 8c79 2f3d 573c 8b3c e8e8 393c 51c5 bbbc
00000390: 4942 ed3b ad2b 803c f29b 973b 194a c33c
000003a0: 465a 47bd d70a 78bc f190 cb3c 309a 47bd
000003b0: 1d4e fdbc bb55 05bd 8928 43bd 97b0 283d
000003c0: 9dde 9a3c 0b8f 223d 3278 b53c ffb9 1bbd
000003d0: ac60 0f3d 25f7 0bbd 1cbb 073a 1471 7dbc
000003e0: f4e2 23bd 912c 083c cc27 d6bc 0a49 283d
000003f0: 564e e7bc 9e04 a63b 1d21 e73c 2fb7 17bd

bias f4 [50]
0.015488645 0.015931657 -0.043659866 -0.021903453 -0.028388608 0.025113175 0.015048947 0.004100487
-0.037234213 0.038432483 -0.038473785 -0.02024597 -0.03990808 0.02559384 0.0051355874 3.6068937e-05
0.02310563 -0.018067176 -0.0012676048 0.041559283 -0.035170842 0.024483008 -0.0010521578 -0.044388685
-0.012428774 0.0030629185 -0.03287249 0.016123123 0.0020014208 0.014789382 -0.05006317 0.003631115
0.002031809 -0.02567192 -0.016285148 -0.0050373003 0.022668699 0.0018904937 -0.034948047 -0.04134994
-0.046384513 -0.029380167 0.017392758 0.0041971123 0.027164634 0.013207418 0.01574649 0.030192723
0.012826213 -0.0054107932
00000000: 16c4 7d3c 1b83 823c b0d4 32bd df6e b3bc
00000010: 3a8f e8bc 25ba cd3c dc8f 763c 615d 863b
00000020: e782 18bd 616b 1d3d b096 1dbd e0da a5bc
00000030: a876 23bd 2caa d13c 6e48 a83b ba48 1738
00000040: 0548 bd3c 9d01 94bc c225 a6ba 113a 2a3d
00000050: 4d0f 10bd 9790 c83c 8fe8 89ba e9d0 35bd
00000060: 0ea2 4bbc 3fbb 483b 4ea5 06bd a414 843c
00000070: 452a 033b 2a4f 723c 0a0f 4dbd 00f8 6d3b
00000080: 1928 053b eb4d d2bc 6e68 85bc f00f a5bb
00000090: b5b3 b93c 71ca f73a af25 0fbd 8e5e 29bd
000000a0: b0fd 3dbd adae f0bc 427b 8e3c ee87 893b
000000b0: 5e88 de3c ed63 583c c8fe 803c bb56 f73c
000000c0: 0925 523c 064d b1bb

weight f4 [100, 50]
-0.11210464 0.06383865 0.03505893 -0.024956077 0.010274424 -0.037196115 -0.021543296 0.111473955
0.1021067 0.020310786 0.096361965 -0.08604307 -0.12187559 -0.022252997 0.12108957 -0.07272018
0.103703186 0.102641605 0.024698779 0.047097117 -0.061785176 -0.07194496 0.10046132 -0.014649571
-0.11217946 -0.083251595 -0.10827507 0.060018867 0.031069782 -0.034221776 -0.1394548 0.016268432
0.108080946 0.082153164 -0.008191932 -0.05414874 -0.042223677 0.051393684 0.11067201 0.07282477
-0.099143304 -0.09146886 0.021487426 -0.081289 0.036754634 -0.08279521 -0.018919468 -0.07323216
0.13542694 -0.13493414 -0.08820909 0.075197585 0.054524757 0.018789977 0.048452288 0.018753562
0.07521449 -0.030484969 0.04335043 -0.12814869 0.071558796 0.123633705 0.04752649 0.13547777
0.12695459 0.039263804 -0.049166728 0.12451995 -0.11825723 -0.0032006318 0.0076429434 0.13586883
0.120974176 -0.13302095 -0.010725059 0.11080233 -0.008424734 0.098170824 -0.069072165 -0.12973595
0.11677744 -0.0939825 0.09573729 -0.013875182 0.002204887 -0.026833905 -0.10501051 -0.12008669
-0.101592824 -0.091551475 0.04035935 0.05417138 0.114599295 0.0692718 -0.017435107 -0.07192429
-0.021480007 -0.07369996 0.08467193 0.07799745 -0.09320412 0.027712228 -0.116573416 0.10212265
0.038310982 0.07054267 -0.1243315 -0.08191821 0.13809 -0.10646254 -0.09988033 -0.039954692
-0.13341995 0.08359362 -0.081880994 0.118223906 0.11227915 -0.042787146 0.038891543 -0.11802338
-0.01857147 -0.11349177 -0.047735523 0.07873559 0.11776919 -0.10910142 0.10861284 0.13368031
-0.06992186 0.089158356 0.08129573 -0.00626872 0.010728043 -0.086938076 -0.03836493 0.024860995
0.119362414 -0.07652279 -0.12693214 0.13625582 0.09855637 0.05021473 -0.023533357 0.092951566
-0.06481901 0.105260834 -0.06343973 0.08730526 -0.018131103 -0.01987856 -0.10515825 -0.0057446156
-0.11089022 0.004223637 -0.04929209 0.12684406 -0.027967587 -0.050080035 0.07207484 -0.04103743
0.034648992 -0.11968551 0.10820759 0.0654747 0.04538039 0.10744008 0.059438642 0.016338581
0.092718706 0.0007558279 0.07107662 -0.0355902 0.066706344 0.009658001 -0.090655856 -0.08478345
0.0059402613 0.05715622 0.058648657 0.09118682 0.08661968 0.13131978 -0.05427265 0.03182163
0.122461334 0.04940833 -0.04648698 -0.08259254 -0.10491494 -0.044932183 0.064055815 -0.08205076
-0.102107204 -0.109156854 -0.12274375 0.06227558 0.0015503129 0.062614895 -0.12665166 0.058188263
0.063234486 -0.03158528 0.024376996 0.13866685 -0.1142339 -0.09176605 -0.09103875 -0.050040293
0.1302912 0.11182382 0.044033088 0.122693054 0.06743695 0.08719745 0.066283524 0.024134584
-0.104091644 -0.08890527 0.096253 0.119626015 0.026348475 0.056228645 -0.0644194 -0.08740722
0.08227272 -0.040124685 0.019185543 -0.072158225 -0.06376789 0.083156504 0.08720611 -0.062311236
0.016479166 -0.0600424 0.09627794 -0.115829356 0.12752701 0.1325641 -0.04004328 0.003972276
0.07354646 -0.116261065 0.018124811 -0.0016302416 0.028453745 -0.06982716 0.07567666 0.085463695
-0.028369602 -0.015906874 0.016546795 0.13675502 0.12790582 -0.013340809 0.0407192 -0.0018284989
00000000: 1e97 e5bd d7bd 823d f499 0f3d b070 ccbc
00000010: 0f56 283c f45a 18bd 917b b0bc 754c e43d
00000020: 511d d13d ce62 a63c 6c59 c53d 5937 b0bd
00000030: e999 f9bd eb4b b6bc cffd f73d 51ee 94bd
00000040: 5662 d43d c335 d23d 1855 ca3c e8e8 403d
00000050: 7412 7dbd e157 93bd aabe cd3d c104 70bc
00000060: 58be e5bd d07f aabd 52bf ddbd 58d6 753d
00000070: 0e86 fe3c 222c 0cbd 3dcd 0ebe 6045 853c
00000080: 8b59 dd3d eb3f a83d 7437 06bc 12cb 5dbd
00000090: bcf2 2cbd 2f82 523d 02a8 e23d 2725 953d
000000a0: a50b cbbd 0754 bbbd 6606 b03c d97a a6bd
000000b0: 078c 163d 8990 a9bd 00fd 9abc befa 95bd
000000c0: 5cad 0a3e 2d2c 0abe f8a6 b4bd 3101 9a3d
000000d0: 5a55 5f3d 70ed 993c e875 463d 12a1 993c
000000e0: 0e0a 9a3d 9dbb f9bc 3890 313d 6939 03be
000000f0: 6b8d 923d ab33 fd3d 23ab 423d afba 0a3e
00000100: 6200 023e 15d3 203d 0d63 49bd 5104 ff3d
00000110: d930 f2bd b1c1 51bb a871 fa3b 3321 0b3e
00000120: 4fc1 f73d a536 08be 28b8 2fbc 55ec e23d
00000130: e507 0abc c90d c93d b575 8dbd 80d9 04be
00000140: 0329 ef3d e679 c0bd ea11 c43d bb54 63bc
00000150: de7f 103b c7d2 dbbc c00f d7bd 03f0 f5bd
00000160: e60f d0bd 577f bbbd d94f 253d cfe2 5d3d
00000170: 09b3 ea3d 60de 8d3d 12d4 8ebc 0b4d 93bd
00000180: d7f6 afbc 01f0 96bd 7a68 ad3d 21bd 9f3d
00000190: cde1 bebd c104 e33c 0bbe eebd ae25 d13d
000001a0: faeb 1c3d ad78 903d 83a1 febd bcc4 a7bd
000001b0: 7767 0d3e 0809 dabd 0f8e ccbd 88a7 23bd
000001c0: 3d9f 08be 2233 ab3d 39b1 a7bd 601f f23d
000001d0: 9cf2 e53d 9341 2fbd bd4c 1f3d 3eb6 f1bd
000001e0: 3223 98bc 606e e8bd 5386 43bd 2040 a13d
000001f0: f930 f13d 9170 dfbd 6970 de3d 7ee3 083e
00000200: 3133 8fbd a898 b63d 607e a63d d669 cdbb
00000210: acc4 2f3c 970c b2bd 8b24 1dbd 49a9 cb3c
00000220: 4874 f43d fbb7 9cbd 80fa 01be a586 0b3e
00000230: ecd7 c93d f6ad 4d3d 07c9 c0bc 645d be3d
00000240: d4bf 84bd fe92 d73d b0ec 81bd 1acd b23d
00000250: ae87 94bc 5dd8 a2bc 355d d7bd 543d bcbb
00000260: 691a e3bd 6f66 8a3b 81e6 49bd 69e3 013e
00000270: 481c e5bc b920 4dbd f99b 933d dd16 28bd
00000280: 1aec 0d3d ad1d f5bd f19b dd3d 9917 863d
00000290: cae0 393d 8b09 dc3d ef75 733d 7dd8 853c
000002a0: 4ee3 bd3d c022 463a 9e90 913d 08c7 11bd
000002b0: 569d 883d 983c 1e3c c7a9 b9bd f2a2 adbd
000002c0: 86a6 c23b a41c 6a3d 9339 703d 28c0 ba3d
000002d0: a965 b13d b178 063e 004d 5ebd 6657 023d
000002e0: 02cd fa3d 6460 4a3d 2269 3ebd 4726 a9bd
000002f0: a5dd d6bd cf0a 38bd b22f 833d 3b0a a8bd
00000300: 951d d1bd a18d dfbd 1361 fbbd ae14 7f3d
00000310: de33 cb3a 3d3c 803d f9b0 01be d156 6e3d
00000320: 1581 813d 915f 01bd 44b2 c73c affe 0d3e
00000330: 77f3 e9bd d7ef bbbd 8672 babd 0df7 4cbd
00000340: 0e6b 053e e303 e53d 0a5c 343d 7f46 fb3d
00000350: 621c 8a3d 9494 b23d a8bf 873d e4b5 c53c
00000360: 002e d5bd f713 b6bd 4b20 c53d 7cfe f43d
00000370: c2d8 d73c 0250 663d 52ee 83bd 8e02 b3bd
00000380: 9a7e a83d c859 24bd 002b 9d3c b1c7 93bd
00000390: bd98 82bd f54d aa3d 1e99 b23d 113a 7fbd
000003a0: 51ff 863c 05ef 75bd 5e2d c53d f137 edbd
000003b0: 7196 023e e2be 073e 6c04 24bd de29 823b
000003c0: 879f 963d 481a eebd 7c7a 943c d5ad d5ba
000003d0: d417 e93c 8b01 8fbd 5dfc 9a3d 9707 af3d
000003e0: 5e67 e8bc 224f 82bc 258d 873c 8209 0c3e
000003f0: bef9 023e 6993 5abc 2dc9 263d 3eaa efba

bias f4 [100]
0.0006088197 -0.13666165 -0.043270353 -0.005743705 0.0059101637 0.07225306 -0.08336181 -0.078042686
0.07043064 -0.07737408 -0.052175254 -0.0358725 0.14026432 0.060461417 -0.019989755 -0.029887782
-0.031442992 -0.08601833 0.08000235 -0.07084885 -0.033175692 0.08062625 0.021080071 0.12665614
-0.07076854 0.13943622 -0.12346885 0.02924204 0.11913026 0.12973733 -0.14065954 -0.056346122
-0.09350722 0.12675427 0.064735994 -0.058626648 0.046214607 -0.009396912 0.03781921 -0.035926703
0.095382325 -0.02827617 -0.12620372 0.0052666366 0.031482562 0.051721472 -0.023249937 0.09235543
0.101552054 0.02869688 0.06389849 0.085265286 0.15214364 0.015100897 -0.13741618 -0.043605667
0.049394406 -0.10524242 -0.058716968 -0.03239925 -0.061299946 0.10848097 0.07478535 -0.11249568
0.11815394 0.0075327842 -0.029674627 -0.015885543 -0.121235736 0.012477364 -0.13666356 -0.113789864
-0.032339577 0.056219593 0.06384684 0.03623513 0.03568698 -0.065520614 0.07090444 0.057079293
0.0104483515 0.06474355 0.06685428 0.08023035 0.12316274 0.0039069983 0.085667215 -0.0040050466
0.037421227 0.053589236 -0.12852764 -0.13283671 0.06868647 0.07609868 0.07664679 -0.083361395
-0.13553397 -0.09702398 -0.050056517 -0.052599635
00000000: 3399 1f3a 08f1 0bbe 413c 31bd b135 bcbb
00000010: 0caa c13b 6af9 933d 99b9 aabd d8d4 9fbd
00000020: f03d 903d 4d76 9ebd b8b5 55bd 0bef 12bd
00000030: 73a1 0f3e 64a6 773d 8ec1 a3bc 39d7 f4bc
00000040: 5eca 00bd 612a b0bd 46d8 a33d 3419 91bd
00000050: 3ce3 07bd 601f a53d 1db0 ac3c 26b2 013e
00000060: 19ef 90bd 5ec8 0e3e 3ddd fcbd 018d ef3c
00000070: 91fa f33d ddd9 043e 0e09 10be 31cb 66bd
00000080: b780 bfbd dfcb 013e 4e94 843d 7f22 70bd
00000090: 874b 3d3d 81f5 19bc 51e8 1a3d e127 13bd
000000a0: cf57 c33d 6da3 e7bc 8c3b 01be c093 ac3b
000000b0: dcf3 003d e5d9 533d a776 bebc d824 bd3d
000000c0: 86fa cf3d b815 eb3c 36dd 823d 919f ae3d
000000d0: 8bcb 1b3e c169 773c d4b6 0cbe db9b 32bd
000000e0: ca51 4a3d 5789 d7bd 3481 70bd 13b5 04bd
000000f0: a715 7bbd 452b de3d 1029 993d 2364 e6bd
00000100: b1fa f13d 93d5 f63b 3418 f3bc 6622 82bc
00000110: 714a f8bd dc6d 4c3c 88f1 0bbe a90a e9bd
00000120: 8176 04bd 8446 663d 22c2 823d 4a6b 143d
00000130: 832c 123d ac2f 86bd 5936 913d facb 693d
00000140: 902f 2b3c 4498 843d e6ea 883d cf4f a43d
00000150: bf3c fc3d 4706 803b 4b72 af3d c43c 83bb
00000160: 0047 193d 6380 5b3d c09c 03be 5906 08be
00000170: 7eab 8c3d a0d9 9b3d fef8 9c3d 61b9 aabd
00000180: 6bc9 0abe 82b4 c6bd 1008 4dbd b772 57bd

weight f4 [100, 100]
-0.027104927 0.0067373873 -0.00680547 0.029159356 0.058693957 0.06241423 -0.032881595 0.08012704
-0.0053622155 -0.09907356 -0.07933476 -0.06592385 0.041392155 0.020809453 0.051721282 -0.006035817
-0.08030412 -0.01154455 0.024392331 0.0014113545 -0.06344326 -0.061500397 0.0126929125 0.073450334
0.0023819685 0.040801108 -0.035098128 0.024168361 -0.0111268135 0.060052942 0.102407746 -0.04861042
-0.007855379 -0.005655227 0.09348347 0.093031354 -0.0717815 -0.044624824 0.09382995 -0.048905157
-0.049441524 -0.083239906 -0.05538918 0.008911252 0.07513878 0.083674654 -0.01581172 -0.042585265
0.014236133 0.093259 -0.0033961774 0.0528762 0.06225342 -0.062905125 -0.06275993 -0.086541325
-0.0059766653 0.034017205 -0.09892273 -0.061643705 -0.0749196 0.050035823 0.06159997 -0.10001755
0.087841004 0.055508375 -0.03161553 -0.022329118 -0.037805714 0.0712736 -0.00837897 0.085011885
0.015106773 -0.04845538 0.04918794 0.064739995 -0.030007739 0.019376038 -0.024387857 -0.021191502
-0.0392226 -0.061131287 -0.041109305 -0.084023006 0.010825003 -0.08904106 -0.097145915 0.07749107
0.0024912953 -0.080907054 0.088614725 0.07451815 -0.054259982 -0.09570124 0.03390099 -0.022329105
-0.007323015 -0.054391745 0.0067985654 0.03874899 -0.0714883 -0.0329705 0.060057852 0.05243764
-0.052603595 -0.032188855 -0.019976322 0.09438562 -0.026862208 -0.06919215 0.0014940262 0.04292499
0.0578549 -0.00843949 0.0041119936 0.0036293268 0.039637584 -0.0041231993 0.07432138 -0.07201784
0.032000244 0.0038689864 -0.09413796 -0.016547477 -0.090700045 -0.09638955 -0.029879626 -0.06758976
0.012177183 0.0040938687 0.09836214 0.0414973 -0.04220492 0.004739925 -0.07120208 -0.0004085613
0.0015157931 0.05788106 0.037777774 0.014590904 0.027426219 0.059951793 0.04954035 0.09042316
-0.009370619 -0.02360028 0.085138954 0.09047399 0.0407997 -0.0032040954 -0.08661374 -0.042393208
-0.05251293 0.025516426 -0.065391794 0.04023525 -0.018546581 0.060101796 -0.022279678 -0.05551203
-0.07816775 0.043021467 0.023050869 -0.056271113 0.078420654 0.019619085 -0.090746224 0.016753748
0.050174408 -0.062383603 -0.0972809 0.09618853 -0.013914243 -0.027669305 0.056160342 -0.055356782
-0.09781574 0.03581602 0.01605439 0.0021794797 -0.09487121 -0.004380894 -0.014644309 0.044142224
0.06289833 0.0046271984 0.034106135 -0.088708274 -0.06993619 0.08155269 0.016317774 -0.033349313
-0.0052680494 0.014901163 -0.065152615 0.084458865 0.026710272 0.04782502 0.0066820025 -0.03723892
0.056091633 -0.0024782897 -0.051405556 -0.0066625956 0.04002376 -0.0635447 0.061268285 0.0648392
0.02775539 -0.040730607 -0.067677274 0.005987263 -0.01829615 0.040335074 -0.026575161 0.032207694
-0.0809334 -0.060094643 -0.05975485 -0.099963404 -0.045278024 -0.011048665 -0.08881601 0.040335186
-0.07780949 -0.049703207 -0.0052406657 0.01111722 -0.08043508 -0.046856634 0.013378303 -0.033610374
0.019876743 -0.017208057 0.07855934 0.07117256 -0.08313749 -0.017353075 -0.092409186 0.0765415
0.01612296 -0.07341831 0.029682323 -0.038119722 0.052215815 -0.03866234 0.031789772 -0.010117515
0.071440645 0.025122344 0.00689019 0.020981098 0.016762212 0.012660289 -0.0019510388 0.06098912
00000000: 270b debc 4dc5 dc3b 6c00 dfbb 9adf ee3c
00000010: 1369 703d 10a6 7f3d daae 06bd a519 a43d
00000020: 86b5 afbb 14e7 cabd 437a a2bd 1503 87bd
00000030: d28a 293d 9678 aa3c b2d9 533d 1ac8 c5bb
00000040: 7d76 a4bd 5a25 3dbc 6dd2 c73c 33fd b83a
00000050: 8aee 81bd d7e7 7bbd eff5 4f3c 216d 963d
00000060: cd1a 1c3b 101f 273d 0ec3 0fbd bafc c53c
00000070: 3d4d 36bc 13fa 753d 27bb d13d b81b 47bd
00000080: d9b3 00bc 7c4f b9bb 4374 bf3d 3987 be3d
00000090: 2e02 93bd 85c8 36bd eb29 c03d c650 48bd
000000a0: 3283 4abd af79 aabd c4df 62bd 8000 123c
000000b0: 5ce2 993d 9e5d ab3d 9587 81bc e36d 2ebd
000000c0: ab3e 693c 93fe be3d 6792 5ebb b794 583d
000000d0: 71fd 7e3d 67d4 80bd 4788 80bd 943c b1bd
000000e0: e7d7 c3bb a055 0b3d 0098 cabd 1c7e 7cbd
000000f0: 726f 99bd 5df2 4c3d 4050 7c3d 00d6 ccbd
00000100: fce5 b33d c05c 633d 497f 01bd 8eeb b6bc
00000110: 2ada 1abd e5f7 913d f347 09bc b61a ae3d
00000120: 6682 773c 2679 46bd 4b79 493d 6796 843d
00000130: cad2 f5bc 7fba 9e3c 0bc9 c7bc cd99 adbc
00000140: e1a7 20bd cd64 7abd 3b62 28bd 4114 acbd
00000150: 5a5b 313c 295b b6bd 70f4 c6bd a3b3 9e3d
00000160: 0045 233b 99b2 a5bd a37b b53d f99c 983d
00000170: b73f 5ebd 03ff c3bd c4db 0a3d 87eb b6bc
00000180: e7f5 efbb e1c9 5ebd 80c6 de3b 43b7 1e3d
00000190: 7568 92bd 130c 07bd 39ff 753d dac8 563d
000001a0: de76 57bd 76d8 03bd 62a5 a3bc 3f4d c13d
000001b0: 220e dcbc 9db4 8dbd 33d3 c33a 1dd2 2f3d
000001c0: 42f9 6c3d c945 0abc e7bd 863b 00da 6d3b
000001d0: 055b 223d e71b 87bb cf35 983d 177e 93bd
000001e0: b012 033d d28e 7d3b 67cb c0bd 938e 87bc
000001f0: f2c0 b9bd e267 c5bd 1ec6 f4bc 806c 8abd
00000200: cf82 473c dc25 863b 1772 c93d 13f9 293d
00000210: 11df 2cbd 5f51 9b3b 65d2 91bd 2b34 d6b9
00000220: 94ad c63a b114 6d3d debc 1a3d b00e 6f3c
00000230: f3ac e03c 0390 753d d2ea 4a3d c72f b93d
00000240: 3a87 19bc 6055 c1bc 555d ae3d 6d4a b93d
00000250: 961d 273d cdfb 51bb 8b62 b1bd 80a4 2dbd
00000260: cc17 57bd d307 d13c 22ec 85bd b8cd 243d
00000270: 00ef 97bc 4d2d 763d df83 b6bc 9560 63bd
00000280: 6a16 a0bd 4737 303d 2dd5 bc3c 8a7c 66bd
00000290: 029b a03d 34b8 a03c 28d9 b9bd 283f 893c
000002a0: ae83 4d3d f385 7fbd 353b c7bd 7efe c43d
000002b0: 91f8 63bc bdaa e2bc 6308 663d cbbd 62bd
000002c0: 9e53 c8bd d2b3 123d 7f84 833c 9ad5 0e3b
000002d0: d64b c2bd 9a8d 8fbb afee 6fbc 7ace 343d
000002e0: d7d0 803d c19f 973b e0b2 0b3d afac b5bd
000002f0: b53a 8fbd 1905 a73d daac 853c 4a99 08bd
00000300: 9a9f acbb 0224 743c bc6e 85bd c5f8 ac3d
00000310: 80cf da3c 2be4 433d b3f4 da3b d687 18bd
00000320: 57c0 653d cd6a 22bb a28e 52bd e751 dabb
00000330: f4ef 233d b923 82bd 74f4 7a3d 6aca 843d
00000340: 465f e33c 23d5 26bd 629a 8abd cd30 c43b
00000350: cfe1 95bc 6436 253d 27b4 d9bc 37ec 033d
00000360: 69c0 a5bd cd25 76bd 80c1 74bd 9db9 ccbd
00000370: 7375 39bd 7605 35bc 2be5 b5bd 8236 253d
00000380: 955a 9fbd 9795 4bbd e4b9 abbb 0025 363c
00000390: 26bb a4bd beec 3fbd ab30 5b3c 08ab 09bd
000003a0: 8dd4 a23c e9f7 8cbc b8e3 a03d ebc2 913d
000003b0: fd43 aabd 0928 8ebc 0741 bdbd cac1 9c3d
000003c0: 4c14 843c 575c 96bd 5828 f33c 6d23 1cbd
000003d0: 40e0 553d 675c 1ebd fe35 023d efc3 25bc
000003e0: 794f 923d 60cd cd3c 1ac7 e13b 8de0 ab3c
000003f0: e850 893c 1a6d 4f3c 00ba ffba bacf 793d

bias f4 [100]
0.019685706 -0.016105944 0.045084246 0.002947993 0.04659019 -0.045105856 0.10025035 -0.02399235
-0.054340806 0.088664226 -0.047218792 0.08714102 0.07272519 0.084395714 0.082676075 -0.019067056
0.05020796 0.04009531 0.05256177 0.035955522 -0.07247328 0.007083083 -0.048282713 0.017299162
-0.025634969 -0.050247636 -0.0137628205 -0.06942731 -0.07483585 -0.05477954 0.06981205 0.060062397
0.07628985 0.014841517 0.05135458 0.08024985 0.02937739 0.027583651 -0.078422755 0.020426529
0.046687927 -0.058372125 0.07671808 0.02061489 0.027485754 0.04846541 -0.041586336 -0.08275907
-0.00065253995 -0.018356098 -0.045957927 -0.065193035 -0.02292628 -0.025477601 -0.038490307 -0.053414576
0.08396389 0.032203317 0.031831395 -0.05771896 -0.09970161 -0.055336073 0.051077068 0.02950326
0.026997602 0.011014807 -0.023597432 0.049219705 -0.030394852 0.014525795 -0.007228315 -0.009086017
0.09032378 0.024760978 0.059619583 0.028530408 -0.094975874 0.038251888 0.04944238 -0.09138489
0.058441866 0.007598298 0.0017590229 -0.01637054 0.04076106 -0.0062086885 0.027503714 0.062377214
0.006401515 -0.05431191 -0.06481332 0.013344639 -0.021842986 0.08619155 -0.021041634 -0.01714145
0.057412364 -0.08625946 -0.09710399 0.08922917
00000000: eb43 a13c 9df0 83bc 42aa 383d 1e33 413b
00000010: 5bd5 3e3d ebc0 38bd 0e50 cd3d 9b8b c4bc
00000020: 7794 5ebd 9795 b53d 7e68 41bd fe76 b23d
00000030: f2f0 943d a9d7 ac3d 1352 a93d 8432 9cbc
00000040: dda6 4d3d fb3a 243d 034b 573d 1946 133d
00000050: df6c 94bd 3519 e83b 18c4 45bd f9b6 8d3c
00000060: 6d00 d2bc 77d0 4dbd 747d 61bc e82f 8ebd
00000070: 8a43 99bd 8360 60bd 9ff9 8e3d fd03 763d
00000080: da3d 9c3d d629 733c 2e59 523d 095a a43d
00000090: daa8 f03c 1cf7 e13c 1c9c a0bd 8955 a73c
000000a0: d73b 3f3d 9c17 6fbd 5e1e 9d3d 8fe0 a83c
000000b0: ce29 e13c aa83 463d 6f56 2abd 967d a9bd
000000c0: 370f 2bba 875f 96bc 613e 3cbd ed83 85bd
000000d0: e5cf bbbc 67b6 d0bc 03a8 1dbd 3ec9 5abd
000000e0: 43f5 ab3d a0e7 033d a361 023d b76a 6cbd
000000f0: 5c30 ccbd 14a8 62bd 3036 513d d2b0 f13c
00000100: 132a dd3c 7377 343c 674f c1bc 9a9a 493d
00000110: a0fe f8bc 9afd 6d3c 80db ecbb 84dd 14bc
00000120: adfb b83d 89d7 ca3c aa33 743d 9ab8 e93c
00000130: b682 c2bd 03ae 1c3d 1884 4a3d 0028 bbbd
00000140: bd60 6f3d 25fb f83b 048f e63a 831b 86bc
00000150: 12f5 263d 4172 cbbb 784f e13c 407f 7f3d
00000160: cdc3 d13b 2a76 5ebd d9bc 84bd 79a3 5a3c
00000170: 10f0 b2bc 3285 b03d 815f acbc 3a6c 8cbc
00000180: 3a29 6b3d cda8 b0bd 75de c6bd c8bd b63d

weight f4 [100, 100]
-0.030257268 0.022649793 0.08645007 -0.03230333 -0.0077320156 -0.08250399 -0.08308849 0.08723868
0.051001932 -0.046648026 0.046247285 0.023605324 -0.0452213 -0.07587461 0.023710752 -0.012843869
0.06253485 -0.001124369 -0.026998853 0.0074311695 -0.08845208 -0.020955542 0.029142806 0.085241124
-0.039656486 -0.07029358 0.007935819 0.05164063 -0.01774092 -0.07275159 0.025635015 0.044492256
0.017803308 0.03373593 -0.029614072 -0.029660001 0.08413494 0.013708353 0.058285568 -0.018973835
0.067541234 0.04004721 -0.016889103 -0.049195655 0.023968473 -0.06177077 0.07856547 -0.0055406466
0.07677628 0.019748306 -0.023301532 -0.09996871 -0.040807735 -0.035444226 0.037756342 -0.08117852
0.0540587 -0.06529709 0.024092937 -0.09416626 0.011737292 -0.017201796 -0.06032545 -0.0027907009
0.052565563 -0.0832738 -0.08687221 0.013451076 0.014228106 -0.014168131 0.030916477 0.0629713
0.011725068 0.05341548 -0.085887335 0.028867269 -0.06943395 -0.06241372 -0.00029355194 0.018953145
-0.010420943 0.086210035 0.05129518 0.06630548 -0.0022751123 -0.06361421 0.06195541 -0.080073275
-0.07986014 0.028210986 0.06970147 -0.045177363 0.023628134 -0.01837705 0.03133524 -0.0113193635
0.021779893 -0.028577482 0.08113855 0.009599161 0.08303638 -0.015598453 -0.0008525133 0.0037084937
-0.012924957 -0.0918988 0.05589688 0.03275576 0.0443588 0.041819286 -0.09177367 -0.09577304
0.05700878 0.0008443594 0.018913424 -0.035677817 -0.025697483 -0.051129032 -0.081816606 -0.091045104
-0.05581528 -0.031241298 -0.0052981973 0.027690042 0.07723631 0.082545474 0.046183933 -0.096044384
-0.08549465 0.040617514 -0.007636392 0.03967117 0.028185321 -0.048140135 0.06347632 -0.064108886
-0.055453658 -0.06554961 -0.075645424 -0.012464511 0.057852257 -0.095441975 -0.03919847 0.038869787
-0.015944635 -0.050370205 -0.061654117 -0.08005422 0.025644029 0.06560588 0.096361175 0.07678521
-0.06807996 -0.024549866 0.050080933 0.03244511 -0.033337332 0.07942294 0.0442119 -0.030901933
-0.042849936 0.022999454 0.044639673 -0.031647243 -0.088803194 -0.0019512177 -0.08878308 -0.0041651847
0.04634881 0.0510734 0.066458106 -0.048415434 0.032002162 -0.030257512 -0.026347507 0.00028315783
-0.024606599 -0.023243034 0.00014660359 0.08631815 -0.023017455 -0.035288382 0.093882516 -0.015494073
-0.0023337842 0.014935947 0.06395395 0.002780223 0.05170509 -0.048058417 0.013246477 0.055649485
0.0027374506 0.0022764087 0.023936415 -0.064876996 0.0705833 0.08785204 0.07102605 -0.036270943
-0.00012146235 0.01256938 0.0014785171 -0.021658111 -0.030121958 -0.037336648 -0.053459954 -0.0864849
-0.06679481 -0.0828616 -0.057966616 0.027930988 0.025661767 -0.043276608 0.016900683 0.06010586
0.06622354 0.08741187 -0.08823856 -0.029051257 0.07141473 -0.09545777 -0.016714633 -0.071973495
-0.059080947 -0.09968858 -0.0142145995 0.08112281 -0.014189387 0.0008866191 0.014660144 -0.012519754
-0.011887598 -0.001603055 -0.019162918 -0.010368049 0.075228274 0.0055133584 0.054489758 0.08327871
0.016708864 -0.060328305 -0.023306776 -0.07386096 -0.034290552 -0.038676765 0.09565895 -0.060879063
-0.0040035844 -0.088259935 0.09694439 -0.07925552 0.06955802 0.075416505 -0.07110176 0.017486716
00000000: 17de f7bc 0f8c b93c bc0c b13d 7f50 04bd
00000010: d95c fdbb daf7 a8bd 4c2a aabd 31aa b23d
00000020: 67e7 503d 0012 3fbd cb6d 3d3d f45f c13c
00000030: f839 39bd 2664 9bbd 0d3d c23c 176f 52bc
00000040: 4512 803d 905f 93ba b32c ddbc 2b81 f33b
00000050: 5d26 b5bd f5aa abbc e5bc ee3c e692 ae3d
00000060: d76e 22bd 15f6 8fbd 3d05 023c 2085 533d
00000070: 6855 91bc c9fe 94bd 8600 d23c 833d 363d
00000080: 3ed8 913c b02e 0a3d 3699 f2bc 88f9 f2bc
00000090: f04e ac3d 0099 603c d9bc 6e3d 046f 9bbc
000000a0: 0f53 8a3d 8b08 243d 045b 8abc 6281 49bd
000000b0: 8859 c43c 5903 7dbd efe6 a03d 508e b5bb
000000c0: e23c 9d3d 33c7 a13c dbe2 bebc 65bc ccbd
000000d0: 0326 27bd f72d 11bd 65a6 1a3d ed40 a6bd
000000e0: a86c 5d3d 7bba 85bd 8d5e c53c 3dda c0bd
000000f0: c54d 403c c8ea 8cbc d217 77bd 31e4 36bb
00000100: fd4e 573d 748b aabd 0fea b1bd e761 5c3c
00000110: 001d 693c 7321 68bc 8d44 fd3c 19f7 803d
00000120: 801a 403c 31ca 5a3d b3e5 afbd 0d7b ec3c
00000130: 6333 8ebd 87a5 7fbd e0e7 99b9 a043 9b3c
00000140: 9abc 2abc e38e b03d e51a 523d 2bcb 873d
00000150: 0d1a 15bb 2b48 82bd f5c4 7d3d 75fd a3bd
00000160: b78d a3bd ba1a e73c a5bf 8e3d e60b 39bd
00000170: ca8f c13c 788b 96bc 6159 003d da74 39bc
00000180: bf6b b23c 531b eabc f82b a63d cd45 1d3c
00000190: fa0e aa3d a790 7fbc 337b 5fba 330a 733b
000001a0: 33c3 53bc 7035 bcbd 20f4 643d e72a 063d
000001b0: 93b1 353d b34a 2b3d d5f3 bbbd a824 c4bd
000001c0: 0a82 693d 0058 5d3a 53f0 9a3c e722 12bd
000001d0: 8783 d2bc ad6c 51bd 778f a7bd db75 babd
000001e0: 909e 64bd c0ed ffbc 809c adbb 3ad6 e23c
000001f0: 122e 9e3d 9a0d a93d 5d2b 3d3d ebb2 c4bd
00000200: d217 afbd 8d5e 263d b33a fabb 3d7e 223d
00000210: e7e4 e63c 972e 45bd dfff 813d 854b 83bd
00000220: 6023 63bd e03e 86bd fdeb 9abd f337 4cbc
00000230: 7df6 6c3d 1577 c3bd 938e 20bd ed35 1f3d
00000240: 539e 82bc fd50 4ebd 0789 7cbd 78f3 a3bd
00000250: 6d13 d23c 605c 863d 0259 c53d 9041 9d3d
00000260: 826d 8bbd cd1c c9bc aa21 4d3d 2ae5 043d
00000270: ba8c 08bd 7fa8 a23d 8a17 353d 0d26 fdbc
00000280: 6a83 2fbd 5a69 bc3c 17d8 363d 8aa0 01bd
00000290: 73de b5bd 00c0 ffba e7d3 b5bd 1a7c 88bb
000002a0: 40d8 3d3d 5732 513d 301b 883d 434f 46bd
000002b0: b314 033d 9ade f7bc bad6 d7bc cd74 9439
000002c0: c793 c9bc 2d68 bebc 9ab9 1939 92c7 b03d
000002d0: 1a8f bcbc 8d8a 10bd 7a45 c03d dada 7dbc
000002e0: 67f2 18bb e7b5 743c 4afa 823d 6734 363b
000002f0: b7c8 533d e7d8 44bd c007 593c b7f0 633d
00000300: cd66 333b cd2f 153b 4d16 c43c 3bde 84bd
00000310: fa8d 903d c5eb b33d 1b76 913d d790 14bd
00000320: 9ab9 feb8 cdef 4d3c cdca c13a 5a6c b1bc
00000330: 53c2 f6bc 50ee 18bd d3f8 5abd ff1e b1bd
00000340: b8cb 88bd 58b3 a9bd 676e 6dbd 87cf e43c
00000350: a038 d23c d042 31bd 4d73 8a3c 9031 763d
00000360: 35a0 873d ff04 b33d 6bb6 b4bd e7fc edbc
00000370: e341 923d 5d7f c3bd 20ed 88bc d766 93bd
00000380: ddfe 71bd 8729 ccbd 5ae4 68bc b723 a63d
00000390: 9a7a 68bc 006c 683a 1a31 703c a71f 4dbc
000003a0: 33c4 42bc 9a1d d2ba 8dfb 9cbc c0de 29bc
000003b0: 4811 9a3d 67a9 b43b a730 5f3d 078e aa3d
000003c0: 07e1 883c d01a 77bd daed bebc 6a44 97bd
000003d0: 4074 0cbd 876b 1ebd d7e8 c33d 535c 79bd
000003e0: 8030 83bb a0c1 b4bd c88a c63d b850 a2bd
000003f0: 6f74 8e3d f873 9a3d cd9d 91bd 4d40 8f3c

bias f4 [100]
0.013094341 0.01964121 0.05033919 0.050482996 0.04366889 0.09573269 0.096668735 -0.07411307
0.041881014 -0.05027354 -0.08321356 0.02081657 0.043059222 -0.016055183 -0.025508579 -0.0180127
0.0647426 -0.053045787 0.053451683 0.034532286 -0.03355934 0.020816648 -0.08987745 0.024261573
0.05302304 -0.057343815 -0.09942902 -0.060408197 0.09630626 0.044052493 -0.018822039 -0.09418379
0.070162594 -0.05597762 -0.045100942 0.0142556 0.09687883 0.023046039 0.009439135 0.017838692
0.06546154 0.021488529 -0.06375994 -0.000744319 -0.03158944 0.05456799 -0.034310255 0.04915416
-0.0074845753 0.031817734 0.08781444 -0.021357728 0.046709478 -0.08252228 -0.037163075 0.06852323
-0.04007459 -0.04618499 0.09286303 -0.048853885 -0.080170095 -0.0361403 -0.061571922 0.031121586
-0.068379745 0.003007685 0.049544543 -0.1022174 -0.019573377 -0.016861185 -0.059561558 0.009663833
-0.03838106 0.074455634 0.08380809 0.008541906 0.0699317 -0.09308355 0.080822565 -0.061071634
0.0053084013 -0.09436526 0.06349713 -0.09601277 -0.06693246 -0.029052764 -0.029652216 -0.08307948
0.0562688 0.0416184 0.06773145 0.024294544 0.03989731 -0.004722659 -0.088747494 -0.06363631
-0.056969035 0.10288257 -0.076603815 0.03126446
00000000: a689 563c 9ae6 a03c 7730 4e3d 42c7 4e3d
00000010: 26de 323d 800f c43d 42fa c53d 98c8 97bd
00000020: 6d8b 2b3d a1eb 4dbd df6b aabd 8387 aa3c
00000030: de5e 303d 2986 83bc 5ef7 d0bc 5f8f 93bc
00000040: c597 843d 8a46 59bd 27f0 5a3d ba71 0d3d
00000050: 8575 09bd ad87 aa3c ab11 b8bd 35c0 c63c
00000060: b02e 593d 59e1 6abd 71a1 cbbd 966e 77bd
00000070: 373c c53d 6370 343d ad30 9abc 6ee3 c0bd
00000080: 68b1 8f3d ca48 65bd c4bb 38bd 5290 693c
00000090: 6868 c63d 0ccb bc3c 9aa6 1a3c 7322 923c
000000a0: b310 863d b608 b03c 9294 82bd 671e 43ba
000000b0: ee63 01bd af82 5f3d e988 0cbd df55 493d
000000c0: 2b41 f5bb 5053 023d 0fd8 b33d 67f6 aebc
000000d0: 7052 3f3d 7101 a9bd 4f38 18bd e855 8c3d
000000e0: 4125 24bd 792c 3dbd f92e be3d 031b 48bd
000000f0: 3830 a4bd da07 14bd d732 7cbd b2f2 fe3c
00000100: ae0a 8cbd 951c 453b 38ef 4a3d 5b57 d1bd
00000110: 5958 a0bc 7820 8abc d2f6 73bd 0e55 1e3c
00000120: 7535 1dbd 327c 983d 93a3 ab3d 5af3 0b3c
00000130: 5a38 8f3d 97a2 bebd 4d86 a53d 4026 7abd
00000140: 19f2 ad3b 9342 c1bd c90a 823d 58a2 c4bd
00000150: e313 89bd 1000 eebc 34e9 f2bc 9325 aabd
00000160: 1d7a 663d 0e78 2a3d c9b6 8a3d 5a05 c73c
00000170: 5d6b 233d 89c0 9abb 3fc1 b5bd c153 82bd
00000180: 5d58 69bd 19b4 d23d 76e2 9cbd 2a0f 003d

weight f4 [92, 100]
-0.04242494 0.08842402 -0.043224096 -0.063161746 0.08868335 -0.0024858713 0.0074602496 -0.015914243
-0.08526357 -0.03678475 0.087229475 0.020939847 -0.022477007 -0.023290543 0.014326054 -0.025411097
0.03783603 0.093244486 0.0014348865 -0.08791391 0.06983399 -0.023446465 -0.07712773 -0.053774513
-0.03254972 0.08495177 0.03235395 0.09209521 -0.08473738 -0.07807648 0.041332614 0.042700764
0.04428086 0.034836534 -0.029835816 -0.041588858 -0.07015043 0.021461034 -0.06760369 -0.09133083
-0.067557886 -0.09382846 -0.037989844 0.011963487 -0.06785352 0.014198215 0.013847733 0.0108987
-0.09803785 0.02317818 -0.068197645 -0.0021707774 0.064015664 0.012348551 -0.059556525 0.0109335445
0.060476776 -0.0012629211 0.061375957 0.099288605 0.018262202 -0.009701157 0.08454374 -0.008299497
-0.03854323 0.014758225 -0.02651445 -0.09061262 -0.068354584 0.06294874 0.025423072 0.083518036
-0.0005265009 0.049405314 -0.097578056 0.091712885 -0.024610737 0.056450117 -0.06973856 0.058358505
-0.06177805 0.028453482 0.018020468 -0.0036007448 0.061488654 0.043895442 -0.07020865 -0.08897489
0.06772619 0.011230359 -0.050967082 -0.004659343 -0.028400578 0.08469358 0.04842162 -0.062668
-0.020920329 -0.018536178 -0.027348913 -0.03734609 -0.040693555 -0.032761704 -0.07048178 0.051277928
-0.031695057 0.031208528 -0.045414228 -0.030998265 0.024871467 -0.04585036 -0.04216059 0.0521167
-0.052460898 0.056862883 0.044512406 0.07297181 0.05162244 -0.100869216 0.018732417 -0.0057835383
0.023463013 0.021890044 -0.0053562643 -0.0054613026 0.06517586 -0.07616704 0.04503293 0.008947883
-0.028066458 0.00028757428 -0.09071572 -0.075757094 -0.09273067 0.030224008 0.08511386 0.09101638
0.010113451 -0.0089723235 0.0028379725 -0.07673741 -0.08458665 -0.07971556 0.082874835 0.028694153
-0.009568913 -0.053018697 0.080877915 -0.089347474 -0.009338521 0.08042848 0.05102012 0.009853947
0.0727375 0.0916021 -0.009296983 -0.093524195 0.043775346 -0.03188326 -0.0025275287 0.0667541
-0.09749066 0.015691174 -0.04255233 0.076571494 0.07308424 -0.075418875 -0.042107996 -0.050536223
0.009004012 -0.052431263 -0.05897528 -0.06725393 -0.056116074 -0.06110316 -0.07993964 0.038329802
0.06689736 -0.09530877 0.012305202 0.023404388 -0.064789765 0.04647076 0.07432559 -0.0100956755
-0.095922366 0.055874404 -0.03983555 -0.052543998 0.0381565 0.0003744469 -0.06258174 0.04813372
0.049661517 -0.030616485 0.028265214 -0.010778866 -0.0037552407 -0.07989022 -0.100431144 0.07689999
-0.03198232 0.036284447 0.00611248 0.060513165 -0.036630295 -0.097352676 0.07524814 0.09205892
-0.066524796 -0.025186067 -0.036928046 0.044324026 0.09931138 0.014716282 0.039619625 0.07227836
-0.0936008 -0.05116305 -0.09854312 -0.022665655 0.0021356686 -0.008722412 -0.07301766 0.025240732
0.020417979 -0.002899018 0.051898513 -0.015083469 0.039131407 0.040637467 -0.07858191 0.0056720977
0.021685725 -0.04188411 -0.0061389077 0.0673871 0.08009121 -0.038510464 -0.0692961 -0.0022547236
0.032541104 -0.020764684 -0.018076444 0.07444259 -0.027323777 -0.04417979 0.036402542 0.07012929
0.03755356 -0.03095619 0.04278962 -0.051336672 0.08587329 -0.0063184984 -0.02487114 -0.09525584
00000000: c6c5 2dbd a717 b53d c00b 31bd f25a 81bd
00000010: 9e9f b53d 00ea 22bb 1c75 f43b 965e 82bc
00000020: ab9e aebd 9bab 16bd 5ea5 b23d 0b8a ab3c
00000030: b321 b8bc cfcb bebc d3b7 6a3c ef2a d0bc
00000040: f4f9 1a3d f7f6 be3d cd12 bc3a 350c b4bd
00000050: 1f05 8f3d cd12 c0bc 25f5 9dbd aa42 5cbd
00000060: db52 05bd 32fb ad3d 9385 043d 6a9c bc3d
00000070: cb8a adbd 90e6 9fbd 634c 293d ffe6 2e3d
00000080: d95f 353d c1b0 0e3d 3e6a f4bc 1459 2abd
00000090: 07ab 8fbd 0dcf af3c ce73 8abd a80b bbbd
000000a0: ca5b 8abd 2329 c0bd 3d9b 1bbd 8002 443c
000000b0: c9f6 8abd a19f 683c 9ae1 623c 7690 323c
000000c0: 11c8 c8bd 2be0 bd3c 35ab 8bbd 9a43 0ebb
000000d0: a51a 833d 9451 4a3c 8bf1 73bd 9c22 333c
000000e0: 7fb6 773d 9a88 a5ba 5b65 7b3d d357 cb3d
000000f0: 9d9a 953c 9af1 1ebc 4525 ad3d 9dfa 07bc
00000100: 82df 1dbd 7bcc 713c d534 d9bc 1c93 b9bd
00000110: 7dfd 8bbd 45eb 803d 0c44 d03c 810b ab3d
00000120: e104 0aba 3a5d 4a3d 01d7 c7bd f7d3 bb3d
00000130: 759c c9bc 3d38 673d 17d3 8ebd 5409 6f3d
00000140: fb0a 7dbd 4717 e93c a99f 933c 79fa 6bbb
00000150: 87db 7b3d b5cb 333d 8dc9 8fbd 7838 b6bd
00000160: 07b4 8a3d 8aff 373c dcc2 50bd 67ad 98bb
00000170: 54a8 e8bc d473 ad3d c055 463d 1558 80bd
00000180: 1c61 abbc 2fd9 97bc d40a e0bc 37f8 18bd
00000190: 49ae 26bd 2331 06bd c058 90bd ce08 523d
000001a0: add2 01bd 07a9 ff3c 4504 3abd 13f0 fdbc
000001b0: 3fbf cb3c 96cd 3bbd 95b0 2cbd 5278 553d
000001c0: 3de1 56bd 0ee9 683d a452 363d 3f72 953d
000001d0: 0d72 533d 8594 cebd ba74 993c d683 bdbb
000001e0: 8135 c03c c052 b33c 9a83 afbb baf4 b2bb
000001f0: ec7a 853d 77fd 9bbd 7374 383d 249a 123c
00000200: a1eb e5bc 91c5 9639 2ac9 b9bd 8926 9bbd
00000210: 94e9 bdbd 5798 f73c 2d50 ae3d cc66 ba3d
00000220: e3b2 253c a700 13bc 47fd 393b 8128 9dbd
00000230: c43b adbd e941 a3bd 48ba a93d 0010 eb3c
00000240: eec6 1cbc 222a 59bd 52a3 a53d cffb b6bd
00000250: 9900 19bc b0b7 a43d 79fa 503d 7372 213c
00000260: 66f7 943d e299 bb3d 5f52 18bc 9d89 bfbd
00000270: c74d 333d 0598 02bd e5a4 25bb 60b6 883d
00000280: 2fa9 c7bd c78a 803c 5a4b 2ebd 84d1 9c3d
00000290: 31ad 953d 3675 9abd 6f79 2cbd 12ff 4ebd
000002a0: 9085 133c 2ac2 56bd 1090 71bd 6ebc 89bd
000002b0: f8d9 65bd 4f47 7abd 65b7 a3bd b6ff 1c3d
000002c0: 7c01 893d 3f31 c3bd c29b 493c 8fba bf3c
000002d0: 7fb0 84bd 2058 3e3d 0438 983d 5568 25bc
000002e0: f272 c4bd 8fdc 643d 9a2a 23bd 6038 57bd
000002f0: fd49 1c3d 6a51 c439 db2a 80bd dd27 453d
00000300: e069 4b3d 6ccf fabc 738c e73c d799 30bc
00000310: 7c1a 76bb 7c9d a3bd d8ae cdbd be7d 9d3d
00000320: e5ff 02bd 009f 143d 334b c83b a7dc 773d
00000330: a609 16bd d760 c7bd b21b 9a3d 6389 bc3d
00000340: 273e 88bd 0353 cebc dd41 17bd 1c8d 353d
00000350: c463 cb3d 8f1c 713c 3048 223d ad06 943d
00000360: c7b1 bfbd 5990 51bd fad0 c9bd 53ad b9bc
00000370: 93f6 0b3b 73e8 0ebc 488a 95bd a7c5 ce3c
00000380: 9b43 a73c 74fd 3dbb 8993 543d a820 77bc
00000390: 4148 203d 7973 263d 8def a0bd 01dd b93b
000003a0: 43a6 b13c ac8e 2bbd e428 c9bb 3f02 8a3d
000003b0: dc06 a43d 26bd 1dbd 1deb 8dbd fcc3 13bb
000003c0: d249 053d b31a aabc 0d15 94bc 5b75 983d
000003d0: 1dd6 dfbc def5 34bd d51a 153d f29f 8f3d
000003e0: c3d1 193d d697 fdbc 2b44 2f3d 6746 52bd
000003f0: 56de af3d 680b cfbb 90be cbbc 7e15 c3bd

bias f4 [92]
-0.09920371 -0.079477265 0.094314925 0.014025589 -0.045370817 0.06499977 -0.06731139 -0.036638793
0.049064294 -0.055241883 -0.05748347 -0.0853099 0.045593563 -0.02820384 0.09265515 -0.014078001
0.05111407 -0.0037399498 -0.05994976 -0.04120751 -0.056557447 0.030148802 0.07653495 -0.0035682938
0.09000083 0.09357769 0.05674488 -0.06359956 0.034803584 -0.088634826 -0.08583082 -0.038356338
0.09341296 -0.08657371 0.11198998 0.008840881 0.047716875 0.04059744 -0.04031912 0.05571648
-0.04385903 -0.040758613 0.08675939 0.036639813 -0.015749704 -0.08291694 0.09501882 0.078174174
0.06861157 0.07095315 0.06291174 -0.01731926 0.0075944443 -0.021293141 -0.02907695 0.07578839
-0.067899995 -0.068556234 0.0667999 -0.055706438 -0.066637315 -0.06745551 0.096169814 0.01415447
0.058246855 0.04040904 0.01548492 -0.07185219 -0.045711964 0.03506865 -0.018512575 -0.06651817
0.005392013 0.09465925 -0.007680893 -0.05966349 -0.08706341 -0.007118264 -0.03584895 0.10918172
-0.046518195 -0.068139955 0.038166143 0.08289709 0.0049714143 -0.0282479 0.02593934 -0.05239204
-0.024810502 0.031953305 0.048396777 0.07344152
00000000: 512b cbbd fac4 a2bd 2f28 c13d 96cb 653c
00000010: c0d6 39bd 991e 853d 8eda 89bd 8f12 16bd
00000020: a4f7 483d 5045 62bd c973 6bbd f5b6 aebd
00000030: 51c0 3a3d bd0b e7bc fcc1 bd3d 6aa7 66bc
00000040: fd5c 513d f219 75bb e18d 75bd 35c9 28bd
00000050: c8a8 67bd 9ffa f63c 5bbe 9c3d 09da 69bb
00000060: 5b52 b83d a9a5 bf3d 526d 683d 7c40 82bd
00000070: 348e 0e3d 2d86 b5bd 12c8 afbd 891b 1dbd
00000080: 4b4f bf3d 8f4d b1bd 015b e53d 58d9 103c
00000090: c572 433d 8049 263d a925 25bd f736 643d
000000a0: 87a5 33bd 81f2 26bd e8ae b13d a113 163d
000000b0: 8605 81bc 5bd0 a9bd 3a99 c23d c819 a03d
000000c0: 3984 8c3d e34f 913d dfd7 803d 1fe1 8dbc
000000d0: d1da f83b f46e aebc c932 eebc f236 9b3d
000000e0: 270f 8bbd 3667 8cbd 63ce 883d 6f2c 64bd
000000f0: 2579 88bd 1d26 8abd aef4 c43d 26e8 673c
00000100: 4194 6e3d f383 253d 76b4 7d3c 3e27 93bd
00000110: 783c 3bbd 25a4 0f3d afa7 97bc ae3a 88bd
00000120: 7caf b03b b5dc c13d 00b0 fbbb b461 74bd
00000130: 4d4e b2bd 5440 e9bb 59d6 12bd aa9a df3d
00000140: dd89 3ebd f68c 8bbd 1a54 1c3d f3c5 a93d
00000150: 3fe7 a23b 2468 e7bc bd7e d43c 0999 56bd
00000160: 653f cbbc 78e1 023d b33b 463d 8268 963d
